HW2/rob538a2/dqn_2agents_p2_a1.pth (torch, 20823 bytes, 6 tensors)

fc1.weight f4 [64, 4]
000000 c5 10 03 3d e0 6b 4f be e0 a1 b2 be ff e9 86 bd
       0.031998415 -0.20255995 -0.34889126 -0.065876
000010 a6 8b f3 be 61 b9 87 3e fc 77 02 3f 10 cf 9b 3d
       -0.4756748 0.2650862 0.5096433 0.076078534
000020 92 03 39 3e 82 e8 a5 3e f1 ac 2b 3f c4 47 0a bd
       0.18067768 0.32403952 0.6706076 -0.033759847
000030 3a 37 e0 be 81 7c 1e 3d 8e 4e a9 3e 54 f8 34 be
       -0.43792135 0.038692955 0.33067745 -0.17672855
000040 6f a3 57 3f c7 2f 0a 3f 7f e4 ac be 8e b7 0c 3f
       0.84233755 0.5397915 -0.3376808 0.5496758
000050 75 56 d1 be c4 e7 55 3e 24 45 79 be f7 23 03 3f
       -0.40886274 0.20889193 -0.24342781 0.51226753
000060 aa 63 b9 be 35 1e 3b 3f 7d ee b3 3e e9 73 b2 be
       -0.3620885 0.7309297 0.3514289 -0.34854057
000070 55 31 c2 3e bb 41 0b 3f c0 35 22 be 9c 09 3b 3f
       0.37928262 0.5439717 -0.15840816 0.7306154
000080 37 96 17 3e 4f 9b 01 3f 5b 54 fc bd 20 60 ae be
       0.14803396 0.5062761 -0.12320777 -0.34057713
000090 96 5a b7 3e 5e c3 98 bf a1 93 c2 3d c8 ea e2 bd
       0.358113 -1.1934621 0.09500814 -0.11079937
0000a0 d6 45 9a be f4 ab 39 be 7a d2 58 3e 24 c4 31 3f
       -0.30131406 -0.18132001 0.2117404 0.6943991
0000b0 9a 6a 8a be 2a b5 73 be 37 71 eb 3e 9a 63 f7 bb
       -0.27034456 -0.23799577 0.45984814 -0.007549715
0000c0 46 c4 35 3e cf 49 8f be 73 a2 1e 3f 9b 25 5f 39
       0.17750654 -0.27986 0.6196663 0.00021280946
0000d0 56 b9 3c bf aa dd f2 3e 19 c2 0d 3e 43 c3 1b be
       -0.737203 0.4743474 0.13843574 -0.15211205
0000e0 20 f9 42 3f d7 0f d8 be 52 bf 59 3f c6 6d 31 3d
       0.76161385 -0.42199585 0.85057557 0.04331758
0000f0 1c 7f 36 3f a2 e2 d8 3e e4 d4 86 3d e6 8d 15 be
       0.71287704 0.42360407 0.065835744 -0.14604911
000100 63 2a 21 bd 37 a1 d6 3e 30 fc bc be ce 55 aa bd
       -0.039347064 0.41919872 -0.36911154 -0.08317147
000110 62 a6 5a 3f 7e a2 d9 3e e1 81 dd 3e 5f 54 df bd
       0.8541013 0.42506784 0.43263152 -0.109047644
000120 47 7a 86 bf 07 ae 63 3e 34 cd cd 3e e2 11 2d 3c
       -1.0506066 0.22234355 0.4019562 0.010563346
000130 24 e1 84 be 5d 41 89 be b6 da 09 3e c7 61 b5 be
       -0.2595302 -0.2680768 0.13462338 -0.3542616
000140 86 cb d4 be b3 31 88 be af f0 2e 3e 99 d5 26 3f
       -0.41561526 -0.26600417 0.17084001 0.65169674
000150 56 c3 c9 be 56 39 51 3d bd e0 29 be af 42 3f be
       -0.39406842 0.05108007 -0.16589637 -0.18677782
000160 09 1f dd 3e be c5 e9 be ec d1 1f 3f 4b 34 44 3f
       0.4318774 -0.45658678 0.6242969 0.7664229
000170 00 83 30 3f 26 87 a8 3e 34 68 e6 3e ea cc 86 3e
       0.6894989 0.3291561 0.45001376 0.26328212
000180 f0 0f 66 3f f3 e6 0d bd fa 27 a8 3e 8f 67 b9 3e
       0.8986807 -0.03464408 0.32843 0.3621182
000190 e6 93 a6 bf ab c6 e6 bd 66 1d fb 3e 49 df 06 3e
       -1.3013885 -0.11268362 0.49045867 0.13171114
0001a0 b1 eb 56 3f 87 7c e2 3e 59 ae a1 3e 22 9c f1 3e
       0.83953387 0.44235632 0.3157833 0.47189432
0001b0 c6 a7 ea be e0 b6 30 be 30 d4 f1 be 38 2e a3 bd
       -0.45831126 -0.17257261 -0.472322 -0.079678
0001c0 1f a2 ba be 36 a9 03 3e 1b d8 4f be a0 6e 90 bc
       -0.36451814 0.12857518 -0.20297281 -0.017630875
0001d0 1e 14 e5 be ce 94 f4 be 50 36 59 be 5a 09 d7 be
       -0.4474191 -0.4776978 -0.21212125 -0.41999322
0001e0 93 4a 83 be 0a 0f 5c be 93 22 95 be 46 72 7b be
       -0.25642833 -0.21490112 -0.2912794 -0.2455531
0001f0 b0 a7 9c 3d 90 6a f0 be bc c8 b0 be 90 08 fa be
       0.07649171 -0.469563 -0.34528148 -0.48834658
000200 04 36 70 3e 27 26 11 3e 2a fb 97 3e 3a 15 3f 3f
       0.23458105 0.1417471 0.2968381 0.74641764
000210 dd 46 c8 3e 36 8d 00 be d5 5d ce 3a f2 15 48 3a
       0.39116564 -0.12553868 0.0015744517 0.00076326646
000220 a5 9d 2c 3f a5 2a d3 3e 0c 5b 2e bf f2 a1 ee 3e
       0.67428046 0.41243473 -0.68107677 0.4660793
000230 56 62 29 3c 9f e3 57 bf a6 5c 68 be 08 e5 6f be
       0.0103383865 -0.843317 -0.22691593 -0.23427212
000240 6c 65 19 bf c6 df a7 bd d7 1a a7 3e 11 ba 07 3f
       -0.5992038 -0.08196978 0.32637665 0.5301829
000250 c0 b4 75 be e1 4c a7 3b b8 a2 43 bc fa 7e 54 3e
       -0.23994732 0.0051056 -0.011940651 0.20751563
000260 10 33 5a bf b5 b8 18 3f 2e 1b 81 be 90 1d 4a 3e
       -0.85234165 0.5965684 -0.2521605 0.1973784
000270 39 3e b2 3d 65 97 f7 be ca 57 6a bf bf 46 c1 3e
       0.08703274 -0.48357692 -0.91540205 0.37749287
000280 be b8 3b be 19 9c 43 3e b9 7d 8f 3d 4c 5c 83 3c
       -0.18332192 0.19102515 0.070064016 0.016035222
000290 1d 02 28 be 10 2d 97 bd 1d f5 1f bf 80 d0 74 3e
       -0.16407056 -0.07381642 -0.6248339 0.23907661
0002a0 ac 2f 9c be 53 f3 18 be 0e 9b e1 3e a9 ea 8c 3e
       -0.3050512 -0.14936571 0.4406361 0.27522781
0002b0 16 59 e6 be ef 54 fd 3d 63 59 b0 bd 6e a5 1a 3c
       -0.44989842 0.123697154 -0.08610799 0.009438856
0002c0 b1 b9 35 be fd fe 97 be 3d 85 0e bf 3e c9 c8 3d
       -0.17746617 -0.29686728 -0.55672055 0.09804009
0002d0 bd 41 4f 3f c1 2f ed 3e 7b a8 7f 3e 80 ba a0 3d
       0.80959684 0.46325496 0.24966614 0.07848072
0002e0 09 16 56 3f 0e 21 9c bd 8d d9 17 3f 1b 71 0a bf
       0.8362737 -0.07623492 0.5931633 -0.54078835
0002f0 e0 99 2b 3f e1 5d 82 bd 15 23 ae 3e 06 8b 04 3f
       0.6703167 -0.06365562 0.3401114 0.5177463
000300 f2 12 8b 3f 04 9a dc 3e 42 93 2f be bb 47 84 3e
       1.0865157 0.43086255 -0.17146018 0.25835976
000310 18 31 15 3f 29 24 9e 3d c7 30 1c 3f 14 1a 63 bd
       0.58278036 0.07721741 0.6101193 -0.055444792
000320 7b d4 6f bf bf 47 51 3d 28 96 89 be 68 c1 01 3f
       -0.93683594 0.051093813 -0.26872373 0.5068574
000330 fe df 04 3f 29 c4 6e bd eb a2 cb bd 0e d0 ea 3c
       0.51904285 -0.05829254 -0.099431835 0.028663661
000340 bc 3f 82 3e 8e fa 7c 3e 06 75 ac be 30 52 e7 3e
       0.2543925 0.24704954 -0.33683032 0.45179892
000350 27 59 3f 3f 9e 9e 89 3d 6a ba ab be dc 9f 95 bd
       0.7474541 0.06719707 -0.3354066 -0.073058814
000360 06 b6 0e 3f 9a 8b ac 3e af 60 27 be 92 1e 92 bd
       0.55746496 0.33700258 -0.16345476 -0.07134737
000370 44 e5 52 bf 46 90 89 3e fe 54 aa 3d 56 bd db 3d
       -0.8238108 0.26867884 0.08316992 0.10729472
000380 dd e5 61 be e3 2a 2a be 37 eb 08 be b7 a5 ed bd
       -0.22060342 -0.16617922 -0.13370977 -0.11603873
000390 b6 0f 1b 3f a6 77 75 3d 11 a7 29 3e dd 14 e8 bd
       0.6057085 0.05992856 0.16567637 -0.11332104
0003a0 e1 cd 26 be 7a f0 41 3e 39 b3 db be d3 69 14 3e
       -0.16289474 0.18939391 -0.42910174 0.14493494
0003b0 22 e5 4b be 51 fb 22 be 58 c6 79 bd 9a eb 2d 3e
       -0.19911626 -0.15916182 -0.06098017 0.16984406
0003c0 f1 4c 2a 3f d3 42 f7 bd 8b 58 fb 3d b3 f0 32 bb
       0.66523653 -0.120732926 0.122727476 -0.0027304112
0003d0 2e 34 cd 3d b3 e9 92 3e ee 32 14 3f fb d4 9a be
       0.10019718 0.28693923 0.5789021 -0.30240616
0003e0 de c6 1c bf 93 95 84 3e 0a af a1 be 88 4f b6 3e
       -0.6124095 0.25895366 -0.31578857 0.35607553
0003f0 24 37 0a bf a9 59 d9 3c 41 d9 91 3e 0a c2 da bd
       -0.5399039 0.026532011 0.28486064 -0.10681541

fc1.bias f4 [64]
000000 1e 0b 1d bd 1b 09 04 3f 86 fe cb be c3 7c 4f 3f
       -0.03834068 0.51576394 -0.39842623 0.81049746
000010 87 e6 3d 3d fe ae 5d be b5 48 0d bf 98 f0 f4 be
       0.046362426 -0.21648785 -0.5518907 -0.47839808
000020 55 8c 2f bf 91 9d 39 3f 15 dc 98 be 06 52 52 3f
       -0.68573505 0.7250605 -0.2985541 0.8215641
000030 fa a0 c1 3e b5 80 66 be 1c de 38 3f 2b c8 ae be
       0.37818128 -0.22510035 0.7221391 -0.3413709
000040 e2 a5 5e bf fc b2 04 3f fa 2f f1 be 2e 63 51 3d
       -0.8697187 0.5183561 -0.47106916 0.051119976
000050 20 45 15 3f 94 c2 86 3f ad ae 04 3f 15 04 5d 3d
       0.583086 1.052813 0.51829034 0.05395897
000060 23 60 6e 3f 28 b4 d7 3e a5 3d 13 3e 10 25 2e be
       0.93115443 0.42129636 0.14378984 -0.17006326
000070 94 e2 6a 3f 08 40 bd be 1d 5b 10 3f e7 e4 10 be
       0.9175198 -0.36962914 0.5638903 -0.1414982
000080 55 3b 90 bd 4e 2b 7f 3f 77 8a 00 bf cd e1 d5 3e
       -0.07042567 0.9967545 -0.5021128 0.41773835
000090 b9 62 1b bf 43 cb 3a 3f 5b be 86 bf 1e e2 84 bc
       -0.60697514 0.729664 -1.0526842 -0.016221102
0000a0 b5 f1 d5 3e 04 c8 29 be f6 6b 3b 3f e4 88 47 3f
       0.4178597 -0.16580206 0.7321161 0.77943254
0000b0 88 b8 e0 3e 4a b5 8d be 0b c5 9d 3e 96 66 99 3e
       0.43890786 -0.27677375 0.30814394 0.2996108
0000c0 20 d0 d6 3d 40 e4 ac 3e fc 6c 13 3f 4b c6 2b be
       0.104889154 0.3376789 0.5758817 -0.16774862
0000d0 5b a2 8c 3f 23 ec 5d 3f f2 db 8f 3f 68 98 39 3f
       1.0987047 0.8668844 1.1238997 0.7249818
0000e0 b5 ef 70 3e a0 e2 57 3f 5f 9b 6b 3f e3 03 0f 3f
       0.23528941 0.8433018 0.9203395 0.55865306
0000f0 db 3f 1a 3f 18 04 0f be ef 42 25 3f 81 a0 41 3f
       0.60253686 -0.13966405 0.6455526 0.75635535

fc2.weight f4 [64, 64]
000000 7b 38 b0 bd 8d 80 67 3e d5 8d ed 3d fe 84 8a 3e
       -0.08604523 0.22607632 0.11599318 0.2705459
000010 9d 6c 3e 3d 35 27 ec bd f8 34 18 3e 07 ae 3f 3d
       0.0464903 -0.11530916 0.14863956 0.046796825
000020 43 01 f1 bd 78 f1 97 be 08 77 1f bf 84 f7 85 bf
       -0.11767819 -0.29676414 -0.62291 -1.0466161
000030 97 14 b4 bf a5 2e b2 3d 3e 69 1a bf ee 21 a5 bd
       -1.4068784 0.08700303 -0.60316837 -0.08063112
000040 15 b1 16 bd 89 4c 04 3e b7 a1 ea 3d 11 ef c8 3d
       -0.036789972 0.12919821 0.11456626 0.09811223
000050 1e b7 46 be 0b 67 2e 3e 9e f6 ad be 69 05 bf bd
       -0.19405791 0.17031495 -0.33977216 -0.09327204
000060 6d cc 4b bd a6 2e 88 3c a3 fa 22 be 68 f6 87 3c
       -0.049755502 0.016623806 -0.15915923 0.016596988
000070 b2 b7 5f 3e 48 bb 30 3d 9b 06 75 3e 10 63 67 bd
       0.21847418 0.043147355 0.23928301 -0.056490958
000080 22 7b e3 bd 85 30 71 be 31 59 20 be df 8f db 3c
       -0.1110747 -0.23553665 -0.15659024 0.026802002
000090 3b bb 60 bd b1 45 92 3d c7 00 18 3e bd 8d ee be
       -0.054866057 0.07142199 0.14844047 -0.46592513
0000a0 52 4f 44 3e e2 94 ba 3e 16 35 a7 bd ab 5b ca 3e
       0.19170883 0.36441714 -0.08164422 0.39523062
0000b0 5d ff 77 3d d6 8b 35 bc 33 eb 06 bf 33 e2 16 be
       0.060546268 -0.011080703 -0.52702636 -0.14734726
0000c0 2f e5 c3 bd 69 28 14 3e 64 d6 81 bc 86 34 ea 3e
       -0.09565198 0.1446854 -0.0158493 0.45743197
0000d0 c1 be 11 3e 75 c4 88 bd 3d 5c 01 3e 6d 8d 6f 3e
       0.14232923 -0.06678096 0.12632842 0.23393793
0000e0 fd e6 62 3e 93 1d 6d 3c f8 6e 04 3d 50 b4 c4 3e
       0.22158428 0.014472383 0.03233239 0.38418818
0000f0 71 c7 16 3f be c5 88 3d 1a d6 68 3e ed e6 a2 3e
       0.58898073 0.06678341 0.22737923 0.31816807
000100 18 1b 28 3d bc f9 49 bd d8 5e 30 bd 60 b5 fa 3c
       0.041041464 -0.04931043 -0.0430592 0.030604064
000110 ec 7b 43 bd 78 e7 e2 3c 98 d6 2a bd 10 e2 80 3d
       -0.047725603 0.027698264 -0.04170856 0.06293118
000120 0c f8 9f bd 00 e2 eb 3d bc ee 56 bd ec d6 a0 3d
       -0.07810983 0.115177155 -0.05247377 0.07853493
000130 a0 0e f3 bb 00 81 f2 bb 08 7b 7c 3d 80 ec 20 3b
       -0.007417515 -0.007400632 0.06164077 0.0024555027
000140 bc fd 35 bd 38 92 f0 3c 2c 19 cc 3d f6 87 b9 bd
       -0.044431433 0.029366598 0.09965739 -0.090591356
000150 bc 05 0a bd 4c 05 cb bd 74 e9 27 bd 00 77 f6 bd
       -0.033696875 -0.0991312 -0.040994123 -0.12034416
000160 fe 87 c3 3d 6c da 04 bd b6 f5 fe bd 88 df 5f 3d
       0.09547423 -0.032434866 -0.124492094 0.054656535
000170 00 0c 72 bb 62 f4 fa bd 7e c1 c6 3d d8 41 81 bd
       -0.0036933422 -0.122536436 0.097048745 -0.06311387
000180 4c 4d f0 bd c2 4f 8e bd 4a 27 fb bd 0c a2 00 3d
       -0.11733493 -0.06948806 -0.12263353 0.03140454
000190 8e a4 bc 3d 4a e2 d3 bd 0c c2 53 3d b4 c4 47 bd
       0.09211074 -0.103458956 0.05169873 -0.048771575
0001a0 4a 92 9e bd 34 a1 03 3d f2 07 ff bd 94 ea c7 3d
       -0.07742746 0.032136157 -0.12452687 0.09761539
0001b0 94 da 78 bd 30 58 e7 bd 00 f6 42 bc 8e 0d df bd
       -0.060755327 -0.11296117 -0.011899471 -0.10891257
0001c0 58 3a 95 3c dc 00 14 3d 04 f5 d4 bd e6 a0 89 3d
       0.018216297 0.036133632 -0.103982955 0.06720142
0001d0 62 af 89 bd bc 1a 68 bd d6 4c d7 bd 58 45 e9 bc
       -0.06722905 -0.05666612 -0.10512702 -0.028475448
0001e0 be 83 ac bd 6e 36 cb 3d f0 0e 4a bc fe dd c4 bd
       -0.08423565 0.09922491 -0.012332663 -0.09612654
0001f0 80 dc 5d bc e0 1d 9b bd 5c d9 71 bd 32 4f a6 bd
       -0.013541341 -0.075740576 -0.05904518 -0.08120574
000200 c0 fb fb 3c 20 35 f0 bb 28 39 27 3d f0 68 7f bd
       0.030759692 -0.0073305517 0.040825993 -0.062355936
000210 d4 3a ab bd dc 99 06 3d 5c 5c d4 bd 56 e9 9e 3d
       -0.0836083 0.032861575 -0.10369179 0.07759349
000220 50 6a 42 bd 7c a1 76 bd 04 45 39 3d d8 83 3a 3d
       -0.04746467 -0.060212597 0.045231834 0.045535892
000230 58 02 95 3c 90 c8 40 3c fc a1 ee bd a8 3c ca 3c
       0.018189594 0.011766568 -0.1165199 0.024687126
000240 d2 97 dc 3d da 3f fd bd d8 d1 e2 3d 94 14 81 3d
       0.10771145 -0.12365694 0.11075181 0.06302753
000250 58 04 d3 bd d0 9a b0 bd c0 18 85 bd 0c e4 9f 3d
       -0.10303563 -0.08623278 -0.06498861 0.07807168
000260 72 39 d6 3d d0 63 e3 3d f6 5a ff bd 18 4f fb bd
       0.104601756 0.11103022 -0.12468521 -0.12270945
000270 54 c9 b7 bd e8 ed b1 3c 98 a8 7c bd 18 a4 ec bd
       -0.08973947 0.021719888 -0.06168422 -0.11554736
000280 f0 ca e8 bd 40 9b c8 bb 90 99 43 3c f0 24 fb 3c
       -0.11366832 -0.006122023 0.011938468 0.030657262
000290 14 d4 0f bd 56 95 9c bd b0 41 cc 3d 54 0f 1b bd
       -0.035114363 -0.07645671 0.099734664 -0.037856415
0002a0 50 2f d1 bc d4 8b d9 3d 10 04 56 bd 88 84 f0 bc
       -0.025535256 0.10622373 -0.052249968 -0.02936007
0002b0 c2 73 84 bd 5c f0 01 3d 5e e3 ec 3d e0 08 fb 3b
       -0.064673916 0.031723365 0.11566804 0.00766097
0002c0 aa 67 81 3d e8 17 4a 3d 40 5c e2 bb 02 38 f0 3d
       0.063186005 0.049339205 -0.0069079697 0.11729433
0002d0 da ad 98 bd 96 f0 e7 bd 9c 23 bd bd 44 8a f1 bd
       -0.074550346 -0.11325185 -0.092353076 -0.1179395
0002e0 74 39 a8 bd 06 5d ef 3d 00 c6 f7 3c 44 60 c6 bd
       -0.08214083 0.11687665 0.030245781 -0.0968633
0002f0 90 59 6a bc ce 2e dc 3d b8 29 bf bd d4 d5 32 bd
       -0.01430358 0.10751115 -0.09334129 -0.043660954
000300 2a d8 b4 3c 9a 96 ee 3d 2c 9c 3f be 39 90 6e 3e
       0.022075731 0.11649819 -0.18711919 0.23297204
000310 28 3f a5 bd 43 a2 df bc 95 22 d6 bd 41 95 32 be
       -0.08068687 -0.027299052 -0.10455815 -0.17439748
000320 af 69 ce be 9c a2 6d 3d 5b 89 4b be 0f 9e d4 3e
       -0.40315005 0.058016405 -0.19876616 0.4152684
000330 12 32 fe bf fd 77 19 3e d6 d9 95 bf 0e fe 9f be
       -1.985903 0.14987178 -1.1707103 -0.31248516
000340 91 6a 84 be c8 0e 33 3d a7 95 00 be 87 30 f7 3d
       -0.25862554 0.04371527 -0.12557088 0.12069803
000350 b1 33 ca 3e db 63 2d 3f ba 90 ca 3d cd 14 ce bd
       0.39492562 0.6773049 0.09890886 -0.10062561
000360 6c 4f f5 3c 8d 2d bf 3e 1f e7 b4 bd 36 1f de bd
       0.029945098 0.3733944 -0.08833145 -0.10845797
000370 bf 8b 00 3f 3a e6 9c 3d fc 92 9f 3d 4e 4a d9 3c
       0.50213236 0.076611 0.07791707 0.026524689
000380 0a 64 7e bd 95 f7 f8 bf 98 82 ea bd cc b9 ab 3e
       -0.062107123 -1.9450556 -0.1145069 0.3354019
000390 81 ba 22 be 2d 84 dc 3d fb 01 be bd e0 cd 17 bf
       -0.15891458 0.10767398 -0.092777215 -0.59298515
0003a0 05 32 77 3e a2 49 df be 17 b4 4d 3e 5d 48 cc 3e
       0.24140175 -0.43610865 0.2008823 0.3989896
0003b0 7e c7 f2 3e f5 74 32 be 92 1e 07 3f fd d7 b1 bd
       0.47417825 -0.17427428 0.5278102 -0.086837746
0003c0 f2 f7 b3 bd a6 c6 e2 3c d7 63 9c 3d 69 82 80 be
       -0.08787526 0.027682614 0.076362304 -0.25099495
0003d0 34 c1 f9 3d e6 f3 f3 3e 95 ad 07 3e ec 70 6a 3e
       0.12195054 0.47647017 0.1324981 0.22894639
0003e0 6a aa 74 3e a8 40 15 3e f6 90 a1 3e da c2 a8 3c
       0.23893133 0.14575446 0.3155591 0.020600725
0003f0 27 1b 2f bf 22 ba 61 be 83 42 81 3e f3 5a da 3e
       -0.68400806 -0.2204366 0.25246057 0.42647514

fc2.bias f4 [64]
000000 b7 aa 5f 3e 9c 20 bd 3d c0 88 7e bd ab d7 2a 3f
       0.21842466 0.09234735 -0.062142134 0.66735333
000010 7f 0a 84 3e 79 ea b3 3e ac e4 e7 3e ec ff 0c 3f
       0.25789258 0.35139826 0.4529165 0.55078006
000020 04 75 b0 3e 1a 48 22 3e a7 14 5d 3e 3b 44 4c 3d
       0.34464276 0.15847817 0.2158991 0.049869757
000030 5c 82 0e 3f 24 c1 88 3e f1 8a 23 3e 58 98 2e 3f
       0.5566766 0.26709855 0.1597097 0.6820121
000040 04 d1 a8 3e 2b 62 eb be bc 9b 81 3e a4 8e 37 bd
       0.32971966 -0.45973334 0.25314128 -0.044813767
000050 5f fa 85 bc 2d 93 9e 3e e1 d2 7e 3e a2 81 f9 bd
       -0.016354738 0.3097166 0.24885131 -0.121829286
000060 c0 be a1 3e fc a2 1b 3e f1 aa 88 3e 4a ac d8 3d
       0.31590843 0.15198892 0.26692918 0.105797365
000070 14 42 48 3e 93 b2 21 3e 81 4c 7f 3e a8 8f b7 bd
       0.19556457 0.15790777 0.24931528 -0.08962947
000080 cc 34 6b bd 35 11 84 bd 26 6b b0 bb 6a 22 26 3e
       -0.057423398 -0.064485945 -0.005383867 0.16224065
000090 a6 7c 84 3e 18 8e 37 3e bb 98 4c 3e a1 93 8e 3e
       0.2587635 0.17925298 0.19980137 0.27847007
0000a0 5b 87 ae 3e b2 cc b7 bd 50 b6 e9 bd d6 89 92 3e
       0.34087643 -0.089745894 -0.114117265 0.28620785
0000b0 29 bc 5b 3c ba bd 44 3e 49 54 cb 3e 86 8f ab 3e
       0.01341156 0.19213 0.39712742 0.33507937
0000c0 a4 50 bb bc e3 25 73 3d 35 fd a9 3e 9c 27 29 3e
       -0.0228656 0.059362303 0.33200994 0.16519016
0000d0 69 de da 3d e5 59 8e 3e f3 1a 21 3e 6c 35 8c 3e
       0.106869526 0.2780296 0.15732937 0.27384508
0000e0 f8 a1 2d bd 34 2d 1f bf 99 5a 9a bd e9 4d 42 bb
       -0.042390794 -0.6217835 -0.075368114 -0.002964849
0000f0 8e af 5c 3e 24 20 71 3d fc fa 4c 3e 13 d2 0f 3f
       0.21551344 0.058868542 0.20017618 0.5617992

fc3.weight f4 [4, 64]
000000 e0 44 80 be 78 a1 c0 3c aa 3e b6 bd bc 2e 2c 3f
       -0.25052547 0.023514494 -0.08898671 0.6725881
000010 b9 c2 ed be 5a 66 ce be ae 38 a1 3f 55 0a 15 bf
       -0.46437624 -0.40312463 1.2595422 -0.5821889
000020 df c4 c0 be cd bf 88 be 28 6c ff bd 70 7b c5 bc
       -0.376502 -0.26708832 -0.12471801 -0.024106711
000030 f4 30 37 3f e3 e6 01 bf 2a ea a4 be 73 f9 b5 3e
       0.7155907 -0.5074293 -0.32209903 0.35541877
000040 24 9e 4b 3e ec 9b 3a 3d ac 53 4d 3e 66 32 f2 bd
       0.19884545 0.045558855 0.2005145 -0.11826019
000050 7c 8a 8d bc 8b 69 e8 be fe 98 b2 be 65 6e 3a 3f
       -0.017277949 -0.45393023 -0.3488235 0.728247
000060 ae 59 ac be 45 60 a4 be 2a 50 d7 be 14 3c a9 be
       -0.3366217 -0.32104698 -0.42053348 -0.33053648
000070 7c eb 7c be bc 29 fe be ab 83 84 be a8 c5 9a bd
       -0.24699205 -0.49641216 -0.25881705 -0.07557231
000080 94 b3 8c bd 53 8e 89 3d f3 a5 a1 3d 95 ba e9 be
       -0.06870189 0.06716599 0.078929804 -0.45650163
000090 f8 d0 d7 be a0 5b 85 be 92 45 98 be 6f 61 c2 be
       -0.42151618 -0.26046467 -0.29740578 -0.3796496
0000a0 83 30 04 bf dc fa 5f bd 44 e1 5e bd b8 1b 45 be
       -0.51636523 -0.054682598 -0.05441405 -0.19248855
0000b0 41 cc a7 be 6d 2e 85 be 77 db 33 3e 86 bf b4 3e
       -0.3277302 -0.26011983 0.17564188 0.3530237
0000c0 f1 c1 bc 3d ad 70 84 3d 52 0d c8 be d9 75 14 be
       0.09216679 0.06466804 -0.39072663 -0.1449808
0000d0 4b e1 1d be e7 19 a9 be 21 67 a9 be 00 ca 0b bf
       -0.15417974 -0.33027574 -0.33086494 -0.546051
0000e0 78 04 06 bd 1d ea dd be 75 89 23 bf ec f3 fa bd
       -0.032719105 -0.43342677 -0.6388162 -0.12253556
0000f0 16 ac d4 be 00 04 8a be 9e 09 02 bf c5 6d ba 3d
       -0.4153754 -0.26956177 -0.50795925 0.09102968
000100 e8 bf 9a be 9c f1 c2 bd 46 34 d2 bd dd dd 91 3e
       -0.30224538 -0.095187396 -0.102638766 0.2848958
000110 c5 86 bf be be 40 87 be 43 99 84 3f 78 7e 30 bf
       -0.37407508 -0.26416582 1.0359272 -0.68942976
000120 7b ac ba be f7 27 7f be bc ad 95 be f8 6e 0b bd
       -0.36459717 -0.24917589 -0.2923411 -0.034041375
000130 5e c0 1f 3f 58 82 e0 be 36 42 b8 be 15 95 c4 3e
       0.62402904 -0.43849444 -0.35988015 0.3839499
000140 e0 ac 3b 3e 97 97 4e 3d cd bd 8e 3e 80 b5 ec bc
       0.18327665 0.050437536 0.27879182 -0.02889514
000150 c9 3b ad 3d 10 83 ab be 04 47 a3 be 3b ff 06 3f
       0.08458669 -0.3349843 -0.31890118 0.527332
000160 1a 18 a2 be 40 fb 84 be 30 e8 cf be c1 17 35 be
       -0.31659013 -0.2597294 -0.40606833 -0.17684843
000170 17 2a b4 be 88 2f ca be 77 60 9a be a8 18 ff 3c
       -0.35188362 -0.39489388 -0.30151722 0.031139687
000180 b8 2c d5 bd b7 b5 d4 3c 07 7f 20 bd 9e 2e bd be
       -0.1040892 0.025965555 -0.039183643 -0.3694963
000190 31 b6 7e be 27 df ab be 71 fb ad be ba 34 b6 be
       -0.24874188 -0.3356869 -0.33980897 -0.35587102
0001a0 86 29 ab be bc e3 24 3d 88 29 5d bc 03 5d 64 be
       -0.33430117 0.040256247 -0.013498671 -0.22301106
0001b0 c2 f5 71 be ed 17 55 be e3 19 93 3e ab a1 9c 3e
       -0.23628905 -0.20809908 0.28730687 0.30592093
0001c0 ae 65 39 3c 4c c1 52 3d 17 66 2e be 61 71 68 be
       0.011315746 0.051453874 -0.17031132 -0.226995
0001d0 8b 1a b9 be f2 da 95 be da 8d a4 be b7 05 a3 be
       -0.36153063 -0.29268605 -0.32139474 -0.31840298
0001e0 e4 90 5b bd 7c 76 52 be ab 6a ee be af 4c 3e be
       -0.053604975 -0.2055301 -0.46565756 -0.1858394
0001f0 7d e6 b1 be c6 06 28 be f3 16 d8 be 68 b2 b7 3d
       -0.3474616 -0.16408834 -0.4220501 0.08969575
000200 04 e7 cc 3d fa b1 c5 bd d4 b7 6e 3d fd 7d bd 3f
       0.10005 -0.09653087 0.05828078 1.4804074
000210 15 9a 31 be 53 fe ad bd 49 a4 b0 3f 48 46 99 bf
       -0.17343934 -0.08495774 1.3800136 -1.1974573
000220 77 8c e3 bd 1f e8 81 bd 31 a8 bf 3b f4 36 f5 3d
       -0.11110776 -0.06343102 0.0058489074 0.11973372
000230 0c c7 18 3f f1 54 1d be 0b fd 37 be 32 36 f6 3e
       0.5967872 -0.15364434 -0.17967622 0.48088223
000240 ef 20 14 3e 3a 99 49 bf 04 a1 36 3f b0 54 ba 3c
       0.14465688 -0.7874943 0.7133944 0.02274546
000250 e8 e7 32 3d 13 d8 19 be 4c e4 88 be db f7 92 3e
       0.043678194 -0.15023832 -0.26736677 0.28704724
000260 48 09 ab bd 60 72 35 be fb f8 cd bb 61 f0 51 be
       -0.0835138 -0.17719412 -0.0062857843 -0.20501854
000270 be 5f 1b be 59 ff 5e 3d 53 99 d2 bd e0 53 1a 3d
       -0.15173241 0.054442737 -0.102831505 0.037677646
000280 e2 89 b7 bd 74 e5 f1 3d 1e d5 d2 3d 99 12 3b be
       -0.08961846 0.11811343 0.10294555 -0.18268813
000290 7a d0 3a be 64 8f 0d be d8 9c 58 be d4 20 d5 bd
       -0.1824359 -0.1382423 -0.21153581 -0.10406652
0002a0 41 a7 99 bd 00 74 a9 3a 8b da e6 bd da 0b 23 3d
       -0.07502604 0.0012928247 -0.112721525 0.039806224
0002b0 9f 00 60 bc dc 8e 7d be 33 a7 1e 3f b9 49 97 3e
       -0.013672023 -0.24761528 0.61973876 0.29548433
0002c0 42 93 62 bd b8 b0 20 3d 6c 13 61 be 98 48 b7 3d
       -0.055316217 0.039231032 -0.21980065 0.08949393
0002d0 ca c0 57 be 53 8e f7 bd 2d 73 15 be 6f 72 20 be
       -0.21069637 -0.12087693 -0.14594717 -0.15668653
0002e0 76 77 c6 3d 70 68 09 c0 61 d7 25 bf 81 59 02 be
       0.09690754 -2.1469994 -0.6478177 -0.12729456
0002f0 3c df 84 bd d7 c4 a7 be 88 c5 90 be 59 2b b3 3e
       -0.06487891 -0.32767364 -0.28275704 0.3499401
000300 a3 4e 35 bf 34 20 fd bd 56 0e d0 bd c8 0e f6 3d
       -0.70823115 -0.12359658 -0.10158984 0.12014538
000310 2c e8 72 be 21 69 d2 be 57 26 ab 3f b9 e2 6d bf
       -0.23721379 -0.41095832 1.3371075 -0.92924076
000320 ba 2c 95 be e8 00 97 be 20 b0 96 be 30 85 d2 3d
       -0.29135686 -0.2949288 -0.29431248 0.1027931
000330 8b 6e 8a 3e cb 01 8c be a9 f5 c3 be 56 73 6f 3e
       0.27037463 -0.27345118 -0.3827336 0.23383841
000340 f7 00 ae 3e c7 31 11 be b8 79 3d 3e 5e 3b f0 3d
       0.3398511 -0.14179145 0.18503463 0.117300734
000350 b0 b8 00 bb 19 df 06 bf 9f b6 c2 be a1 f3 fa 3e
       -0.0019641332 -0.5268417 -0.38029954 0.49014
000360 b4 78 b0 be f1 c7 09 bf 52 ea dc be a5 22 b5 be
       -0.3446709 -0.5382071 -0.43147522 -0.35377994
000370 73 61 9a be ec aa 0c bf 29 c9 d0 be 58 7b 96 3c
       -0.30152473 -0.54948306 -0.40778473 0.018369362
000380 e0 98 e0 bb 67 28 53 3d 34 10 c1 3d 8a ee cc be
       -0.0068541616 0.051552203 0.094269186 -0.4002574
000390 3e 5a 18 bf 34 fa a7 be 16 7d 9b be ed c1 a8 be
       -0.595127 -0.32808077 -0.3036887 -0.32960454
0003a0 45 b2 c7 be 58 02 9c 3c 38 9f 09 3d 1d b7 c8 be
       -0.39003196 0.019044086 0.03359911 -0.39202204
0003b0 3d a5 b5 bd 65 28 b4 be fa 55 c3 3e 97 6f c9 3e
       -0.08869407 -0.3518707 0.38151532 0.3934295
0003c0 18 c4 b1 3c e6 9e fe 3c b9 d0 d7 be a6 a9 a1 bf
       0.02169995 0.031081628 -0.4215143 -1.2629898
0003d0 8d 21 8a be dc 7e d9 be 7e ea 6c be a8 ee e9 be
       -0.26978722 -0.424796 -0.23136327 -0.45689893
0003e0 70 91 d8 3c be 79 49 be 6a cd 22 bf 9f 9f 00 3e
       0.026436538 -0.19675347 -0.63594687 0.1256089
0003f0 dc 93 d8 be f1 54 02 bf f3 f6 99 be d0 37 99 3e
       -0.42300308 -0.5091086 -0.3007122 0.29925394

fc3.bias f4 [4]
000000 8a 26 8c be 29 cf 3d be 4f 8a 01 3e fc 95 a4 bd
       -0.27373153 -0.18536057 0.12650417 -0.0803642
