HW2/rob538a2/dqn_2agents_p2_a2.pth (torch, 20823 bytes, 6 tensors)

fc1.weight f4 [64, 4]
000000 c1 53 3f 3e 82 7d 79 bf 5c 65 a0 3e 4b 54 91 3d
       0.18684293 -0.97457135 0.3132733 0.07096156
000010 af d3 92 3e 90 14 89 be 30 26 8c 3e 72 d1 50 3f
       0.28677127 -0.267735 0.27372885 0.8156959
000020 35 19 96 3e fd 99 6d 3e c1 7b 47 3f 42 8c 23 3f
       0.29316106 0.23203273 0.7792321 0.6388589
000030 a0 27 c8 3e 3e 42 15 3e 4d 57 17 bf f1 b3 3c 3e
       0.3909273 0.1457605 -0.59117585 0.18428017
000040 4a 25 fc 3d a8 5e 14 3e e2 7f 80 3e 58 54 81 bf
       0.123118 0.14489233 0.25097567 -1.0103865
000050 6c 0e b3 3e 39 6a 3d 3e 6a d7 38 be 2d 57 2c 3f
       0.3497194 0.18497552 -0.18050924 0.6732052
000060 6e bc 0a 3f 59 9a 3c be ee 67 58 bc c2 b6 9c 3d
       0.5419377 -0.18418254 -0.0132083725 0.07652046
000070 8a 4e 69 be 8b fb 14 bf 28 1f 01 3f 24 76 96 be
       -0.22783867 -0.58196324 0.50438166 -0.2938701
000080 86 69 bf 3e 0a 13 e4 3d 2e 55 91 3e 96 5a 78 3f
       0.37385195 0.11136444 0.283853 0.97013223
000090 d0 7e 14 bf c6 0b 32 3d d4 80 81 bc db d6 6e 3e
       -0.58006 0.04346826 -0.0158085 0.23324148
0000a0 49 48 ac bd 52 85 e4 be f5 e9 bc bd e6 60 86 3e
       -0.08412225 -0.44632965 -0.09224311 0.26245803
0000b0 a6 ea e4 be 1c cc d4 3e 39 ce 83 bf b7 44 b0 3e
       -0.44710273 0.41561973 -1.0297309 0.34427425
0000c0 dd a3 41 3e 25 af c4 be 98 3f 43 3f b1 58 18 3f
       0.18910165 -0.38414875 0.7626891 0.5951033
0000d0 98 15 40 be 68 18 f8 be da 5a ec be 00 77 6e bc
       -0.18758237 -0.4845612 -0.46163064 -0.014554739
0000e0 f1 12 b0 bc 0e a3 bc bc 39 3a d0 be ed 8a ac 3e
       -0.021493407 -0.02302697 -0.4066942 0.33699742
0000f0 b2 d0 70 3e 93 fa 30 3e 18 76 9b bf 8b ad e1 3d
       0.23517111 0.17283086 -1.2145414 0.11019429
000100 b7 4d bc 3d cb d9 0a 3e cd 1c 24 3d 9d 89 36 bf
       0.091945104 0.13559644 0.04006653 -0.7130373
000110 52 3e 44 3f 16 04 b7 3e 42 65 1b 3f 87 d0 43 3f
       0.76657593 0.35745305 0.6070138 0.7649006
000120 49 7f bf 3e 43 da bd 3e 22 77 da be 3a 45 a4 be
       0.37401798 0.37080583 -0.42669016 -0.32084066
000130 10 10 e9 be 60 a3 e5 be ca ec d0 be 20 dc e5 bd
       -0.45520067 -0.44851208 -0.40805656 -0.11223626
000140 c5 98 b1 bd 90 00 c7 3e 12 c8 25 3f ea c9 03 bf
       -0.086717166 0.38867617 0.6475841 -0.5147997
000150 c5 a2 5c 3e 21 5e 51 be d3 b1 a7 3e ee d6 86 be
       0.21546467 -0.20446064 0.32752857 -0.26335853
000160 ae 48 a5 3d dc 1b d5 be 4c fd 3b 3f 13 2d 15 3f
       0.08070503 -0.41622818 0.73433375 0.582719
000170 1c a4 95 3e 42 44 67 be aa ff 20 3e 2c cc 15 be
       0.29226768 -0.22584632 0.15722528 -0.14628667
000180 ef f4 a5 3d b1 6e bf bb 2b db 04 be d6 2a 79 be
       0.08103358 -0.005842053 -0.12974231 -0.24332747
000190 17 f3 53 be 07 45 75 3e dc 92 c7 bd 3e 6f 21 bd
       -0.206982 0.23952113 -0.09744808 -0.03941273
0001a0 96 b4 b6 3e 2c 52 24 3e cc 97 7c 3d ab 77 ab 3e
       0.3568465 0.16046971 0.061668202 0.33489737
0001b0 95 19 0f bf 92 d5 53 be 3b 9a 91 bd 14 e1 bd 3e
       -0.5589841 -0.2068694 -0.07109495 0.37085783
0001c0 4a aa a5 be 4c e1 41 be 47 6a ec bd 4d 11 e5 3e
       -0.32356483 -0.189336 -0.11543708 0.44739762
0001d0 f9 4f d9 3d 57 aa 4e 3e 8f 3f 8e bd 11 9e e0 3e
       0.10610957 0.20182167 -0.069457166 0.43870595
0001e0 74 ac a3 3d 2c dc 45 3d 4a 5a 1d be 50 62 b4 bd
       0.07991877 0.048305675 -0.15366474 -0.08807814
0001f0 74 e6 37 3f 0d a3 dd 3e d7 ae 87 be a5 46 40 3f
       0.7183602 0.4328846 -0.2650058 0.75107795
000200 c8 6a 57 3f 41 31 87 3e 5d a7 dd 3e f0 55 3c 3f
       0.8414731 0.26404765 0.4329175 0.7356863
000210 fe a9 4d 3d 08 2b bd be 41 23 ce 3e d9 11 25 3f
       0.050210945 -0.36946893 0.40261272 0.6448036
000220 e9 6a cb 3e 7a ae b7 3e f1 54 89 3f 26 96 34 3f
       0.39730003 0.35875303 1.0729047 0.7054161
000230 66 52 16 3f 11 08 ba 3e 85 bf 29 3f 2e 23 40 bb
       0.5871948 0.3633428 0.6630786 -0.0029317844
000240 55 a7 09 3f ee 3b d0 3e 3c 99 63 3f d1 07 03 bf
       0.53770953 0.40670723 0.8890569 -0.511838
000250 28 a2 c6 be 2e 67 5d 3c d7 c0 22 3f 9a 2b 37 3f
       -0.3879559 0.0135133695 0.635755 0.71550906
000260 27 e3 bf 3c 32 ad 27 bc d6 5e f3 be ec 11 92 3e
       0.023423744 -0.010234164 -0.47533292 0.28529298
000270 a7 5b 9e bd 67 1d fa bc d4 85 02 3f e8 bf 6f be
       -0.07732325 -0.030531598 0.50985456 -0.2341305
000280 33 c6 02 3e 54 c8 eb bd 1c ff 0b be 77 6f 09 3f
       0.1277092 -0.11512819 -0.13671535 0.53685707
000290 0d 1b 23 3f 71 cb 13 be 88 0d 56 bf fd b5 28 3f
       0.6371315 -0.14433075 -0.836144 0.6590269
0002a0 54 a0 45 3e 24 fa c2 3e 59 7b d0 3e 44 2e f2 be
       0.19299442 0.38081467 0.40719107 -0.47300923
0002b0 e0 4b 46 3f fb 31 a1 3d c8 82 e0 3e 9f 26 03 3f
       0.77459526 0.07870861 0.43849778 0.51230806
0002c0 de 5f 25 be 25 79 3f be 98 9a de 3d 28 ab 43 be
       -0.16149852 -0.18698557 0.1086933 -0.1910826
0002d0 c0 12 72 bc be 13 f2 be 48 4f 12 be c8 8e ea be
       -0.014774978 -0.47280687 -0.14288056 -0.45812058
0002e0 f2 f7 c2 3e f9 56 9d be 27 4d d2 3e ce cb 17 3e
       0.38079792 -0.30730417 0.41074488 0.14823839
0002f0 4e e6 24 3e ed 16 0d 3f e7 8b 3c 3f 37 1b 0f bf
       0.1610348 0.55113107 0.73650974 -0.559009
000300 a5 51 20 bf 01 57 ae be c5 7f ac 3e 34 82 5e be
       -0.6262458 -0.34050754 0.3369123 -0.21729356
000310 cc e3 36 3f a7 37 3e be 55 d9 3d 3f 24 b3 a6 bd
       0.7144134 -0.18575917 0.7415975 -0.08139637
000320 6b ae 3e 3d 6f 89 a7 3e c7 4c 1f be a3 ae 97 3e
       0.046553057 0.3272204 -0.15556632 0.29625425
000330 3f b5 95 3e 79 87 6b 3d 34 69 26 3f 1c 69 81 bf
       0.29239842 0.057502244 0.6500428 -1.0110202
000340 b0 05 62 3e c9 03 09 3e be b0 37 bf b0 f3 64 3e
       0.22072482 0.1338035 -0.7175406 0.22358584
000350 8f 03 37 3e b0 ef f0 be 3e 74 f4 be e9 c1 99 be
       0.17872451 -0.47057867 -0.47744936 -0.30030754
000360 48 5e ca 3d 1e 97 04 3f d2 63 e8 3b 23 bc 30 bf
       0.09881264 0.51793087 0.0070919776 -0.69037074
000370 52 4e 51 3f ff 9d 01 3f 4a 0b 43 3f a9 4a 1f 3f
       0.8176013 0.5063171 0.761891 0.622233
000380 48 b3 f8 bd d1 7d b8 3d f1 71 44 3f be 3d 66 be
       -0.1214357 0.090083726 0.7673636 -0.2248449
000390 b0 4d 19 3f 43 d0 00 bf 28 c4 65 3e 44 11 df be
       0.59884167 -0.5031778 0.22438109 -0.4356786
0003a0 c4 50 db 3e f6 6e dc 3e f3 ba 5d 3f 3a b3 63 3e
       0.42835057 0.43053406 0.86613387 0.22236338
0003b0 f0 24 19 3f e9 89 22 3e 3e 7e 78 be 2a 66 ba be
       0.5982199 0.15872921 -0.24266908 -0.3640607
0003c0 c0 11 2e 3f 6a 73 8e be da 0e 06 3f 97 f8 14 bf
       0.67995834 -0.2782243 0.5236641 -0.5819182
0003d0 48 f3 45 be 8b 5a ff be c4 22 dc 3d 22 d7 fe 3e
       -0.19331086 -0.49873766 0.107488185 0.49773508
0003e0 e3 f2 5b 3f c1 6e 9a bc 16 f0 33 3f 85 22 c3 3e
       0.8591749 -0.01885164 0.7028822 0.38112274
0003f0 e4 bb 9e be 28 af bc be 0c 4a 0c be fe 57 da be
       -0.31002724 -0.36852384 -0.13700122 -0.42645258

fc1.bias f4 [64]
000000 10 fc 6a 3f a1 c2 93 bf 9b 28 a9 3f c2 9d 8e 3f
       0.91790867 -1.1543771 1.3215517 1.1141894
000010 15 51 98 3f 6c d2 6d 3f a9 2e b8 3f 0c f3 9e 3f
       1.1899744 0.92899203 1.438924 1.2417922
000020 7c a8 98 3e fa 7b 2a 3f f7 a9 85 3f 68 5e 23 bf
       0.29816043 0.66595423 1.0442494 -0.6381593
000030 7c 37 49 3f 58 27 65 be 38 1d 89 3f 6b 7e 0f 3f
       0.7860029 -0.2237829 1.0712042 0.56052274
000040 e8 69 5b 3f 8d 77 81 3e 78 50 37 3e ca a5 c4 be
       0.85708475 0.25286523 0.1790179 -0.38407737
000050 6b 9a 13 3f b0 d4 8a 3f 89 cb 0a 3f 55 d6 bb 3f
       0.576575 1.0846157 0.5421682 1.4674784
000060 ba a1 8c 3f dd a5 8a 3f b4 bc 80 3e a6 0a 40 3f
       1.0986855 1.0831867 0.2514397 0.7501625
000070 4b bb 49 3f 66 b7 9b 3f 79 2f 9c 3f 90 bc a2 3e
       0.7880141 1.2165344 1.2201988 0.31784487
000080 07 58 67 3e d5 13 1f bf 4b e3 01 be 9c 3b 80 3f
       0.22592174 -0.62139636 -0.12684362 1.0018191
000090 0b 57 2b be 9d 4e 98 3e f0 17 93 3f bf 2d 55 3f
       -0.16732423 0.29747477 1.149168 0.8327293
0000a0 9c 22 53 3f 73 8a 2f 3e 90 c9 91 3f a7 90 7a 3f
       0.82474685 0.17142658 1.1389637 0.9787697
0000b0 78 fe 9c be 08 b9 f5 be 08 9b 8e 3f e5 00 a7 bd
       -0.30662894 -0.4799273 1.1141062 -0.081544675
0000c0 3a 3d ea be bc 75 f4 be b2 0c f7 3d c4 b2 3b 3f
       -0.45749837 -0.47746074 0.12062968 0.7331965
0000d0 81 fd 16 3f de 26 01 bf 84 7b 88 3f 41 e7 28 be
       0.58980566 -0.5044993 1.0662694 -0.16494466
0000e0 04 38 e8 3e ea b8 92 3f 7e 7a 2a 3f 4b 4a a5 3f
       0.45355237 1.1462681 0.6659316 1.2913297
0000f0 38 14 b8 3f 93 ce 09 bf 5c d2 72 3f a0 5d 7f bd
       1.438117 -0.5383083 0.9485223 -0.062345147

fc2.weight f4 [64, 64]
000000 2e 1b 19 bb 56 cf 9f bc ee 46 5c be b3 22 a5 3c
       -0.0023362148 -0.019508045 -0.21511433 0.020158147
000010 f6 17 e1 3d 55 ec e0 bd 92 9d 40 3e 8d fd 18 3e
       0.10990898 -0.10982577 0.18810108 0.14940472
000020 49 25 1a be 73 a4 20 3e f8 11 d0 3c 83 40 88 be
       -0.15053286 0.15687732 0.025399193 -0.2661172
000030 e9 6a 43 be 62 ac c2 bd b7 c3 a0 3e 56 87 08 be
       -0.19083752 -0.09505536 0.3139932 -0.13332877
000040 48 3d e2 3b 49 44 6c be 18 32 a9 bc e8 e3 2e bd
       0.006904278 -0.23072924 -0.02065377 -0.042697817
000050 50 65 10 be b6 91 0e be 12 b5 fa 3b 5d 9e 14 3e
       -0.14101148 -0.13922772 0.00765098 0.14513536
000060 f9 62 10 3f 48 cb 03 3e c2 5e 2b be 23 09 4d 3e
       0.5640102 0.12870514 -0.16735366 0.20023017
000070 48 02 7f 3e 99 1f 86 bd 7d a5 8d 3e 15 ff 78 be
       0.24903214 -0.065489955 0.2766532 -0.24316056
000080 08 62 97 be 5e 86 7f be 9b b8 a0 be 67 12 ce bd
       -0.2956698 -0.24953601 -0.31390843 -0.10062104
000090 4a 81 ab be e8 c6 ed 3d 09 9b dd 3e 8f 0b 8e bd
       -0.33497077 0.11610204 0.43282345 -0.069357984
0000a0 d1 9b c0 3d 3d 5d 75 be 50 f3 55 bd b1 d2 a2 bd
       0.094047196 -0.23961349 -0.052233994 -0.079503424
0000b0 03 06 0d be 54 83 d0 3d ee bd 8c be 9f c5 92 bd
       -0.13771825 0.10181299 -0.27488655 -0.071665995
0000c0 a5 63 ad bc 1e 05 71 bd eb b0 4e 3b b5 0f 8a bd
       -0.021165678 -0.05884277 0.0031538557 -0.06741277
0000d0 7b 0a 55 3e b6 8c 90 3c 96 9d 5e bd 77 60 97 be
       0.20804779 0.017645221 -0.054349504 -0.29565784
0000e0 e3 53 46 3c c6 5b ba bd ed 2b 95 bd 28 2d b6 3b
       0.012104961 -0.09099536 -0.07283769 0.0055595823
0000f0 6c 0f 32 bd 49 e6 4e be 7e a7 26 bd a0 1f d8 bb
       -0.04347174 -0.20205034 -0.040687077 -0.006595567
000100 ab cd 3f bd ac 3f 6d 3d 4a 9c e4 bd ff fe a5 3d
       -0.046827 0.05792205 -0.11162622 0.08105277
000110 09 09 24 3d a3 6f 82 bb 7a b1 0b 3d 5d 53 85 3c
       0.04004768 -0.0039805933 0.0341048 0.016275102
000120 d5 76 83 bd dc 85 51 3e f0 6e 57 3d 4a d6 19 be
       -0.0641915 0.2046122 0.052596033 -0.15023151
000130 41 c8 8f bc 80 52 c7 bb 25 34 82 3e 7d e9 00 be
       -0.017551543 -0.006082833 0.25430408 -0.12589069
000140 4d 54 01 3e 83 81 64 be 0e dc ba bd 08 f6 99 3c
       0.12629814 -0.2231503 -0.09124003 0.018794075
000150 fa 32 20 3d d6 b3 7e 3c b9 9d 4e be 3f c3 1f 3e
       0.039111115 0.015545806 -0.20177354 0.15601824
000160 0f 5e 2c 3f a7 6c 35 3e cb 90 f6 bd 30 d9 dd 3c
       0.6733102 0.17717229 -0.12039336 0.027081102
000170 10 4a 92 3d 63 15 9e 3d c2 7d 63 3e 1c 22 05 be
       0.071430326 0.07718923 0.22215942 -0.13001293
000180 65 9b 69 be f2 e7 09 be 66 e0 01 be 37 16 17 3d
       -0.22813185 -0.13467386 -0.12683257 0.03688642
000190 bf 6a a5 be 9f 5f 9b bd b1 3a cf 3e 3c 50 0c bc
       -0.32308003 -0.07586598 0.40474465 -0.008564051
0001a0 c8 a6 ed 3d 79 d1 0d be fc f7 06 3d ae 92 38 be
       0.116040766 -0.13849439 0.03295134 -0.18024704
0001b0 c6 ee 8d bb e8 b0 cb bd 00 2d f5 bd d9 e7 10 be
       -0.0043314425 -0.099458516 -0.11971474 -0.14150943
0001c0 8f 2c fb bc a8 c9 3f be ec 05 b0 bc 79 e3 01 3d
       -0.030660896 -0.1872927 -0.021487199 0.031711075
0001d0 ad 78 aa 3e e0 c0 05 bd 94 7d 05 3b bb be 7f bd
       0.33295193 -0.032654643 0.002036904 -0.062437754
0001e0 d6 89 ea bc aa fa fd bc cf 4b b7 3c 6e 87 59 3e
       -0.028630178 -0.031003315 0.022375016 0.21243069
0001f0 fa 7d 9a bd 36 98 1a be 1d 12 8b ba 20 85 02 bc
       -0.07543559 -0.15097126 -0.0010610257 -0.00796631
000200 85 7a be 3c 11 13 c9 bd 7b e2 f1 bd c7 9c 0e 3e
       0.023251781 -0.0981809 -0.11810776 0.13926993
000210 01 22 2c 3d 8d fc 35 be 03 99 53 3e f4 fd 54 3e
       0.042024616 -0.17772122 0.20663838 0.208
000220 33 46 31 be 96 63 ac bc c1 05 48 3d a9 aa 68 be
       -0.17311935 -0.02104358 0.048833612 -0.22721352
000230 54 7e ed bd 38 c5 74 3d e3 d0 6d 3e 0e 03 02 be
       -0.11596361 0.059758395 0.23224215 -0.12696478
000240 a2 64 31 3e d3 58 ad be af 13 20 be 48 fc af bd
       0.17323545 -0.3385683 -0.15632509 -0.08593041
000250 42 6c 84 bd 5c b2 98 bd c5 2e 9d bc ec 04 6c 3e
       -0.06465961 -0.07455894 -0.01918734 0.23048753
000260 14 6e 1d 3f cf 01 c5 3d fb 3c 8d be f0 0a 10 3e
       0.6149609 0.096194856 -0.27585587 0.14066672
000270 45 56 0a 3e 87 0a 75 3d 2e 95 66 3e ee f1 81 be
       0.13509472 0.059824493 0.22517845 -0.2537989
000280 dc 6e a1 be 40 78 29 be 8e 9a 24 be 5b f1 f9 bd
       -0.31529891 -0.16549778 -0.16074583 -0.12204238
000290 40 d4 28 be a2 ad 0c 3e 82 e8 24 3e 2c 0e 0b bc
       -0.16487217 0.1373811 0.1610432 -0.008487266
0002a0 9c e7 c7 3d 22 d6 83 be 3d 4c b8 bd 5a 44 db bc
       0.09760973 -0.25749308 -0.08998916 -0.026765991
0002b0 01 f8 1e 3d 00 0a 1e 3b 47 84 b3 be c4 98 7a be
       0.038810734 0.0024114847 -0.35061857 -0.24472338
0002c0 84 87 cc bc 64 b9 99 bd 57 57 32 be 8d a5 ff bd
       -0.024966963 -0.075060636 -0.1741613 -0.12482748
0002d0 5e 1c 96 3d 4a fa ab bc 14 14 38 be fd 56 98 be
       0.07329629 -0.02099337 -0.17976409 -0.29753867
0002e0 f1 4a 71 bb 13 2e 73 3d 69 8a 7c be e0 96 6d 3b
       -0.003681835 0.05937011 -0.24662174 0.0036253259
0002f0 25 2b 23 be 65 29 cc bd b0 76 a7 bd e0 43 8f bd
       -0.15934427 -0.09968833 -0.08176935 -0.06995368
000300 00 64 61 bd 9d 3d f7 bd 82 78 26 be e9 8f e2 3d
       -0.055027008 -0.12072299 -0.16256908 0.11062605
000310 f9 8e 32 3e 35 26 cf bd 2c 9b 30 3e ef 83 29 3d
       0.17437352 -0.10114709 0.17246693 0.041385587
000320 66 1e bb be a0 32 f8 3d 0e 03 90 3c 06 d2 77 bd
       -0.3654663 0.12119031 0.017579582 -0.06050303
000330 a6 43 c1 bc 20 e4 fe 3b f7 dd 32 3e 36 ba 8a be
       -0.023591828 0.0077786595 0.17467485 -0.27095193
000340 07 c6 38 3d 1f ae 7c be b9 12 4c be 44 72 7d bd
       0.04511073 -0.24675797 -0.19929017 -0.06187655
000350 9d 4d 08 3d 12 5f 7e bc b6 ee 33 bd 67 76 58 3e
       0.033277143 -0.015525596 -0.043928824 0.21138917
000360 d4 22 08 3f 2d 08 c5 3d 02 57 2d be c2 60 2f 3e
       0.53178144 0.096207 -0.16927722 0.17126754
000370 96 04 82 3d de 3c fe bd ad 76 b4 3e 15 2b a7 be
       0.06348531 -0.12413953 0.35246792 -0.32650056
000380 96 8b a5 be aa 64 49 bd 3e 88 2d be d1 68 e5 bc
       -0.32333058 -0.049168266 -0.16946504 -0.028004082
000390 98 72 98 be f7 bc 0a bc 84 35 82 3e 5c 79 47 bd
       -0.29774928 -0.008467904 0.25431454 -0.04869972
0003a0 0d 47 61 3e 64 9c c1 be a1 c3 4a be d3 fd 76 be
       0.2199976 -0.3781463 -0.19801189 -0.24120264
0003b0 28 1b fd bc 32 04 d3 bd e1 76 a7 be e0 d4 51 be
       -0.030896738 -0.103035346 -0.32707885 -0.20491362
0003c0 81 b1 6e 3d 09 15 ab bd 8c 7b 57 bd 4c 8e b7 bd
       0.05827475 -0.083536215 -0.052608058 -0.08962688
0003d0 6a 01 06 3e a4 64 93 bd ac 9a 55 be db 1c 13 be
       0.13086477 -0.0719693 -0.20859784 -0.14366476
0003e0 52 7b 47 bd a5 7a c8 3d fa 5d 22 be d7 41 e5 3c
       -0.04870159 0.097890176 -0.15856162 0.027985496
0003f0 cb 43 66 3d 0b a2 3b bc 8e ab 0b be b4 1f 2a bd
       0.056216996 -0.011452208 -0.13639662 -0.04153414

fc2.bias f4 [64]
000000 d3 0b 8a 3e 3e 40 5a 3e d1 07 ca 3d 23 ae 04 3e
       0.26962146 0.21313569 0.09864772 0.12957053
000010 f5 e5 1e 3e da 66 c1 3d 78 a3 99 3e ed 72 37 be
       0.15517409 0.094434455 0.3000753 -0.17914934
000020 11 12 9c bd a0 d1 e6 bb a7 12 3d 3f ff 13 97 be
       -0.076206334 -0.007044032 0.73856586 -0.29507443
000030 9b 54 0d be c8 1b 5e be 18 62 93 3e cf 2c d8 3d
       -0.13801806 -0.21690285 0.28785777 0.105554216
000040 ec 0e 6d 3e c8 10 d0 3c 51 ed f3 3d 29 90 63 3e
       0.23150223 0.025398627 0.11910499 0.22222961
000050 1b ea 90 3e d3 b3 74 3e 4e 75 19 3e f4 13 cb 3d
       0.28303608 0.23896722 0.14986154 0.09915915
000060 00 7d ff ba c9 15 19 bd 4d d6 99 3e 84 d2 a5 3d
       -0.0019492209 -0.03737429 0.3004631 0.08096793
000070 db 07 76 3e fa b2 6a 3e 8a 37 8b 3e fc 92 a5 bd
       0.24026434 0.22919837 0.2719081 -0.08084676
000080 cc d8 dc 3c 45 ec ca be 9d 45 60 be c2 eb 21 3e
       0.026958846 -0.39633384 -0.21901555 0.1581259
000090 e5 36 f8 3d 93 b5 72 3e a1 fa f2 3c 24 cd 02 3e
       0.12119845 0.23702078 0.029660525 0.12773567
0000a0 ca 47 b4 3c 62 3d 8c 3e 97 84 22 3e 41 fc 04 bc
       0.022006888 0.2739058 0.15870892 -0.008116783
0000b0 ce 00 72 3e 08 7b 6d bd c6 15 a4 3e 46 c0 cd 3e
       0.2363312 -0.05797866 0.32047862 0.40185755
0000c0 60 cd 3f be c0 70 8e 3e 86 ff 2d 3e 07 f9 08 3e
       -0.18730688 0.27820396 0.16992006 0.13376246
0000d0 a8 11 2e 3e 15 44 01 3f 6f c8 8d be 15 a1 0b 3f
       0.16998923 0.5049451 -0.2769198 0.54542667
0000e0 99 86 63 be e4 08 68 3e 2b b1 98 bd ee ef 88 3e
       -0.22219314 0.22659642 -0.07455667 0.26745552
0000f0 c5 72 46 3e 4b b6 6d bb a2 7a c1 3d 66 2c 00 3e
       0.19379719 -0.0036271985 0.094472185 0.12516937

fc3.weight f4 [4, 64]
000000 1c 52 66 be 8c ed 98 be 99 7c 9a be 93 d8 cc be
       -0.2249226 -0.29868734 -0.30173185 -0.40008983
000010 57 11 8b be 8c 83 21 bd c1 4b db be 07 69 7c 3e
       -0.27161667 -0.039432094 -0.42831233 0.2464944
000020 a8 db fc 3d 67 75 76 3e cf ef 96 3e 1a 8f d4 bf
       0.123465836 0.24068223 0.29479834 -1.6606171
000030 f8 a0 03 3e b1 b7 12 bf 05 96 fe be 59 04 af bf
       0.12854373 -0.5731154 -0.4972383 -1.3673202
000040 2b 60 8e be 31 e9 9e bd ad ec fc bd 53 e3 76 be
       -0.27807745 -0.077593215 -0.1234983 -0.24110155
000050 72 55 b0 be 9f 5e 67 3e cb 60 a1 be 1f 9d a1 be
       -0.3444019 0.22594689 -0.3151916 -0.31565186
000060 d8 8a 6b bd fb e9 a4 3d 1b c9 f0 be 39 97 11 be
       -0.05750546 0.08052441 -0.4702843 -0.14217843
000070 c7 e9 99 be 8b 3f ef be da b4 70 be ac 42 00 bd
       -0.3006117 -0.46728167 -0.2350649 -0.031313583
000080 8e 39 02 3f 8b b6 39 c0 a2 6c a1 3e 26 00 b8 bd
       0.5086907 -2.9017665 0.31528193 -0.08984403
000090 f3 c1 40 be 0b 64 a9 be 90 3b 4f 3d ac 16 9c be
       -0.18823986 -0.3308414 0.050593913 -0.30486047
0000a0 74 34 c4 3d f4 31 ba be 61 02 aa be ac c0 af bd
       0.09580317 -0.36366236 -0.3320494 -0.08581671
0000b0 24 d0 3e be 00 d6 23 bb 72 2a e1 be 48 3f c7 bf
       -0.18634087 -0.002499938 -0.43977696 -1.5566187
0000c0 74 04 7d 3e 96 31 00 bf 46 19 2a be e1 c4 c3 be
       0.2470873 -0.5007566 -0.16611204 -0.38236144
0000d0 49 65 aa be 9a 79 19 bf 32 dd ea 3e c4 a0 d0 3e
       -0.332804 -0.59951174 0.45871884 0.40747654
0000e0 af b0 88 3e 47 da c1 3e ce a8 6f bd b9 6a 01 be
       0.266973 0.37861845 -0.058510594 -0.12638368
0000f0 28 fb 25 be 44 44 e1 3d 03 4c 83 be 63 9b af be
       -0.1620909 0.10999349 -0.2564393 -0.34298238
000100 03 9a 26 3c 6c 02 68 3e 44 82 15 be d8 f4 25 be
       0.010168555 0.22657174 -0.14600474 -0.16206682
000110 c2 a3 3a 3d e0 c5 f2 bc 19 69 97 bd 78 4a 2e 3e
       0.045566328 -0.02963537 -0.07393093 0.17020595
000120 74 80 98 3b 90 7a 3c 3e fb 93 5c 3e 88 71 ae be
       0.0046539847 0.18406129 0.21540825 -0.34070992
000130 ed d4 38 be 40 35 20 bf f5 4a 82 be e4 92 1a 3f
       -0.18049975 -0.62581253 -0.25447813 0.6038039
000140 9e e2 4b be 68 34 a8 be 46 ff 90 be d4 f6 39 be
       -0.19910666 -0.32852483 -0.28319758 -0.18160564
000150 80 92 f7 bc 78 83 1d 3f 86 7e 2f be 94 f1 20 be
       -0.030221224 0.6152873 -0.17138109 -0.15717155
000160 0e e7 e0 bd 9f 91 d2 3d b7 22 3e be 46 40 52 3e
       -0.1098157 0.10281681 -0.1856793 0.20532331
000170 70 cb d6 3c 9a 4d 0a be f0 b3 3f be 80 90 29 bb
       0.026220053 -0.13506165 -0.18720984 -0.0025873482
000180 8d d0 3f bf 41 0a cd bf c3 c6 a3 3e f6 6a 1c be
       -0.749276 -1.6018754 0.3198758 -0.15275177
000190 ed b6 46 bd c5 02 3a be 1c e8 be 3d fd 9c e7 bd
       -0.048514295 -0.18165119 0.09321615 -0.1130924
0001a0 9d db 29 3d db a4 47 be 8e 9b 9a bd fd 06 a8 bd
       0.041469205 -0.19496481 -0.07549201 -0.08204458
0001b0 7f 72 1c be d0 3d 35 3d 14 2b 61 3e e5 0e cf 3e
       -0.15278052 0.044248402 0.21989089 0.4044105
0001c0 13 f0 15 3e e1 ee 3a bd 24 87 29 be dd b7 53 be
       0.14642362 -0.04563797 -0.16555458 -0.20675607
0001d0 b5 7a e6 bd 02 6e b7 be 81 12 8e 3d 9f 5d b1 3e
       -0.11253873 -0.35826117 0.06937123 0.3464174
0001e0 7e 6a a2 3d 7b 55 6b 3e 27 82 1f bd 5b 73 86 bd
       0.07930468 0.22981827 -0.038942482 -0.06564971
0001f0 2f 64 5b be ef 2b c8 3d e2 bc 0c be f3 1d 05 bd
       -0.21424936 0.09774005 -0.13743928 -0.032499265
000200 aa d1 80 be de a4 6f be 7f de a8 be 6f 9b ab be
       -0.2515996 -0.23402736 -0.3298225 -0.33517024
000210 46 6f a0 be a4 ba 8d bd 57 80 99 be 64 5b 7b 3e
       -0.31334895 -0.069203645 -0.29980728 0.24546582
000220 db 1e 9e 3c c6 3e 07 bf 99 07 cb 3e b6 a7 3a 3e
       0.019301822 -0.5283016 0.39654234 0.18228039
000230 73 10 33 bf 3e d1 f9 be ac dc 9a be 7a 43 81 3e
       -0.69946975 -0.48792452 -0.30246484 0.25246793
000240 68 4b 29 be c8 b5 30 be 4c a5 a7 be a1 d7 3e be
       -0.16532671 -0.17256844 -0.327433 -0.18636943
000250 1a 9a 53 be c7 69 e5 3e 4f 3f aa be 5d 0c b3 be
       -0.20664254 0.44807264 -0.33251426 -0.3497037
000260 ce a3 b0 bd b6 51 dd 3b 42 78 b2 be 46 c5 3a 3e
       -0.08624993 0.0067541255 -0.34857374 0.18239316
000270 67 48 b6 be 14 bc 89 be e7 b7 5b be 5c 32 75 3d
       -0.35602114 -0.26901305 -0.21456872 0.05986248
000280 a5 d7 3e bf 33 61 a0 ba 04 4c ab 3e eb 86 b0 be
       -0.745478 -0.0012235999 0.33456433 -0.34477934
000290 29 91 91 be 8b a4 a8 be e4 d7 84 3d ab 58 0a bd
       -0.2843106 -0.32938036 0.0648649 -0.033775967
0002a0 d2 4c 6a 3d fb 83 9b be 72 7a b3 be e1 e1 f1 bd
       0.057202168 -0.3037413 -0.35054356 -0.11810661
0002b0 2f 82 bb be ea 3f e9 3d 79 b7 65 be 67 16 09 3f
       -0.3662276 0.11389144 -0.2243327 0.5354981
0002c0 47 c7 43 3e 62 f3 9f be 68 56 67 be 61 31 43 be
       0.19118987 -0.31240374 -0.22591555 -0.19061805
0002d0 74 f6 c0 be 21 a5 04 be 43 a7 3c 3e 20 1d 63 3e
       -0.3768803 -0.12953617 0.1842318 0.22179079
0002e0 81 fa 01 3e 95 30 12 be b4 ac 0c 3d e9 d0 bf be
       0.12693216 -0.14276345 0.03434439 -0.37464073
0002f0 5a 6e bb be 12 6f d1 3d 65 2e 74 be 4e 58 d1 be
       -0.3660763 0.10226263 -0.23845823 -0.40887684
000300 01 b3 93 be bf 0f 6b be 52 64 27 be 8c 36 2d be
       -0.28847507 -0.22955225 -0.16346863 -0.16915339
000310 61 9b a6 be 78 bd d3 bd 76 68 01 bf 41 92 60 bd
       -0.3254042 -0.10338873 -0.5055002 -0.05482698
000320 18 59 0d 3d 6d 47 22 be 4d b8 b2 3e 09 e5 d7 be
       0.034508795 -0.1584756 0.34906235 -0.42166927
000330 ab 3a f2 be cf 9d 3c be ae 1e 02 bf ca 32 84 3e
       -0.47310385 -0.18419574 -0.50828063 0.2582
000340 50 33 57 be 3a 94 97 be 5b a6 07 be d7 97 b0 be
       -0.21015668 -0.29605275 -0.13247053 -0.34490845
000350 5c 04 c3 be ea 66 90 3e 27 31 6f be 4a 81 6b be
       -0.38089263 0.28203517 -0.23358594 -0.22998539
000360 88 37 da 3c cc 05 26 3c 19 68 d0 be 26 4a 84 3e
       0.026637807 0.010133218 -0.4070442 0.2583782
000370 49 b0 75 be 45 79 0c bf 48 86 99 be 78 dd e7 bd
       -0.23993029 -0.5487254 -0.2998526 -0.11321539
000380 64 b3 d3 be 22 cc 34 3e 65 4c b2 3d b2 ac 9b be
       -0.41347802 0.17655995 0.08705977 -0.30405194
000390 ed 10 85 be 7a ae b3 be b3 cd 63 3d 37 7c 33 be
       -0.25989476 -0.35094053 0.055616092 -0.17527853
0003a0 a1 31 a8 3d 85 46 ce be 6e ed 99 be 13 01 21 3d
       0.08212591 -0.40288177 -0.30063957 0.039307665
0003b0 32 37 73 be 58 bb bd 3d 56 d0 a6 be 27 e7 af 3d
       -0.23751524 0.092642486 -0.32580823 0.08589011
0003c0 0c fd 95 3e 34 6c 01 bf 7f 3f af be 00 8a 9d be
       0.29294622 -0.5055573 -0.3422813 -0.30769348
0003d0 5d 9a 78 be dd 12 8a bf 9a c8 a5 3c a9 d4 fa 3d
       -0.24277635 -1.0787007 0.020237256 0.12247593
0003e0 b2 32 6e 3e 73 65 3b 3e 9a 78 a3 3d 16 c1 cc be
       0.23261526 0.18300419 0.07981987 -0.39991063
0003f0 c1 5c 7a be 9e 60 41 bd c6 77 5f be db 03 a7 be
       -0.24449445 -0.047211282 -0.21823034 -0.3262013

fc3.bias f4 [4]
000000 25 74 d9 3c 79 16 84 bd cc 59 8a 3e 83 fb 26 be
       0.02654464 -0.06449599 0.27021635 -0.16306882
