HW2/rob538a2/dqn_2agents_p3_a1.pth (torch, 20823 bytes, 6 tensors)

fc1.weight f4 [64, 4]
-0.047696967 -0.368212 -0.30116326 -0.057115857 -0.65057033 0.7481154 0.2807194 -0.047906328
-0.19456802 0.07066929 -0.36262777 0.3336076 0.31960317 -0.21329807 -0.32257628 0.008350044
-0.5523262 0.51939917 0.05880753 -0.19963151 -0.64174366 -0.24872242 -0.3902156 -0.17023583
0.52331877 0.260324 0.5151132 0.56437504 -0.30811292 -0.38722864 -0.25353268 -0.33523476
0.12000764 -0.4947994 -0.17767282 -0.050780218 -0.030032743 -0.26836026 -0.036810227 -0.21339375
-0.17734814 -0.16411218 -0.39798844 0.22797081 -1.1974193 -0.18948987 -0.23195282 -0.25975934
0.6002614 -0.3541196 0.35303786 0.51025766 0.16008195 0.5311079 0.13017313 0.59958
0.54506814 -0.13463889 -0.061405882 -0.004105123 0.7090124 -0.11845294 0.049398124 -0.047582492
0.1722651 -0.42271325 -0.4060915 0.10489433 0.25778455 -0.14611436 -0.23927172 -0.14254831
-0.027664525 -0.058193948 -0.16145582 0.28642455 -0.35344315 -0.03652831 0.23980242 -0.10366148
0.21231386 -0.5592599 0.23263495 -0.23516151 0.9177513 0.0120131895 0.19555782 0.63603145
0.62411094 -1.0677333 -0.91495 0.64218575 -0.25214565 -0.3045682 -0.2510201 -0.2696385
-0.039041895 0.09514249 0.0075001703 -0.29440707 0.30399206 -0.020779207 -0.40992978 -0.3577798
0.045833323 -0.22706318 -0.15645336 0.30395377 -0.15106325 0.012050152 0.04868727 -0.20036222
0.33176032 -0.23514509 -0.12404932 -0.078140415 0.645236 -0.106105454 -0.49198905 -0.1815242
0.21457689 -0.29767555 -0.27518278 0.16137274 0.3108879 0.2081213 -0.2409584 -0.5192784
-0.11533921 0.0055888672 -0.47576806 -0.094679795 -0.9205705 0.08759259 -0.12945028 -0.037316613
0.57556146 -0.04432835 0.005303953 0.04257421 0.41429454 0.1515822 -0.7910256 0.04637982
-0.36742938 -0.06152642 -0.070465736 -0.16219497 -0.19896977 0.06456607 -0.39850625 -0.14554946
-0.18263435 -0.35777646 0.01613456 -0.24826533 -0.25476322 -0.050634407 0.074638315 -0.10974478
0.061736383 -0.028113874 0.37143838 -0.55342925 -0.2452059 -0.30578697 -0.5165916 -0.18347415
-0.0987818 -0.18248247 -0.20636572 -0.18063428 -0.58218485 -0.23814711 0.3697551 0.05493944
0.97130144 0.35270807 0.34575188 0.3426848 -0.3177577 -0.14914207 -0.010365679 0.3186875
-0.14634345 -0.1926755 -0.19203608 0.15441783 0.42955902 -0.14237726 0.4778609 -0.27166438
-0.5525366 -0.02429601 0.10866244 0.05216054 0.78561467 0.24876903 0.018670442 0.58443904
0.050167177 -0.36235693 0.6029952 0.31217244 0.5511398 -0.09278377 0.06623377 0.13088153
0.0756569 -0.44418788 -0.060112465 -0.62023157 0.12683064 -0.18368989 -0.22999166 0.21066475
-0.4655165 -0.38405794 -0.41325217 -0.015093982 0.043580126 0.1914604 0.19823535 -0.09031277
0.7688662 -0.86283493 0.370469 -0.47967452 0.118738756 -0.8752339 -0.17352621 0.059281252
-0.008950835 -0.117524885 0.07922678 0.18372633 0.33406886 -0.18656291 0.0016161286 -0.107003994
0.29628593 -0.24715172 0.24637815 0.12279562 -0.42115736 0.48667967 -0.3035492 0.32813615
-0.2656256 0.06631418 0.05058741 -0.21358132 0.0540479 -0.4331564 0.20731087 -0.057101864
00000000: e55d 43bd 4986 bcbe 1232 9abe 51f2 69bd
00000010: c78b 26bf 7e84 3f3f 74ba 8f3e 6d39 44bd
00000020: d73c 47be 10bb 903d 59aa b9be 9ece aa3e
00000030: 07a3 a33e cf6a 5abe b828 a5be 9fce 083c
00000040: 4065 0dbf 58f7 043f 2ae0 703d 346c 4cbe
00000050: 5049 24bf 17b1 7ebe 57ca c7be 4d52 2ebe
00000060: 38f8 053f 3049 853e 75de 033f e27a 103f
00000070: fac0 9dbe d542 c6be 09cf 81be e4a3 abbe
00000080: 91c6 f53d 5956 fdbe ddef 35be ebfe 4fbd
00000090: 3a07 f6bc 8466 89be 52c6 16bd e483 5abe
000000a0: c09a 35be 060d 28be 24c5 cbbe 2e71 693e
000000b0: 0945 99bf a209 42be 0a85 6dbe 2dff 84be
000000c0: bbaa 193f 2a4f b5be 61c1 b43e 3fa0 023f
000000d0: 86ec 233e b0f6 073f 1b4c 053e 137e 193f
000000e0: 9689 0b3f c7de 09be bc84 7bbd 4584 86bb
000000f0: d681 353f 7497 f2bd b055 4a3d dce5 42bd
00000100: 4366 303e df6d d8be 3aeb cfbe d7d2 d63d
00000110: 56fc 833e 019f 15be a503 75be 2ff8 11be
00000120: b7a0 e2bc c75c 6ebd ad54 25be 3da6 923e
00000130: 80f6 b4be b69e 15bd c48e 753e 784c d4bd
00000140: ce68 593e a82b 0fbf db37 6e3e 2ece 70be
00000150: c0f1 6a3f f8d2 443c 4f40 483e f5d2 223f
00000160: bcc5 1f3f 7cab 88bf 2a3a 6abf 4966 243f
00000170: 3c19 81be 5df0 9bbe b585 80be 0f0e 8abe
00000180: 65ea 1fbd 11da c23d fdc3 f53b 86bc 96be
00000190: d9a4 9b3e 2839 aabc 51e2 d1be ea2e b7be
000001a0: b9bb 3b3d 4083 68be 4f35 20be d49f 9b3e
000001b0: 53b0 1abe 006e 453c 4e6c 473d c12b 4dbe
000001c0: 7ddc a93e e0c9 70be 920d febd 1508 a0bd
000001d0: 302e 253f d14d d9bd fde5 fbbe 7be1 39be
000001e0: 0bba 5b3e ee68 98be c2e4 8cbe e53e 253e
000001f0: b32c 9f3e c01d 553e ccbd 76be 6eef 04bf
00000200: f736 ecbd d122 b73b df97 f3be 7be7 c1bd
00000210: 82aa 6bbf be63 b33d 9d8e 04be 4ed9 18bd
00000220: ff57 133f a591 35bd c8cc ad3b 4b62 2e3d
00000230: 6a1e d43e 5d38 1b3e a780 4abf c4f8 3d3d
00000240: b41f bcbe 2103 7cbd 5750 90bd 7016 26be
00000250: bbbe 4bbe 373b 843d 0309 ccbe eb0a 15be
00000260: 8004 3bbe 7a2e b7be a02c 843c 4439 7ebe
00000270: 5370 82be 0666 4fbd f9db 983d dfc1 e0bd
00000280: 4adf 7c3d 114f e6bc 2c2d be3e 8aad 0dbf
00000290: 4117 7bbe 1c90 9cbe 593f 04bf a6e0 3bbe
000002a0: 1d4e cabd afdc 3abe 8951 53be 31f8 38be
000002b0: 110a 15bf d6dc 73be 8a50 bd3e 2e08 613d
000002c0: 36a7 783f 2796 b43e 6406 b13e 6274 af3e
000002d0: 23b1 a2be b3b8 18be cfd4 29bc 022b a33e
000002e0: 0fdb 15be ba4c 45be 1ba5 44be b51f 1e3e
000002f0: 29ef db3e 58cb 11be 2faa f43e 9817 8bbe
00000300: 0a73 0dbf 6d08 c7bc 6a8a de3d 4aa6 553d
00000310: 0b1e 493f 4fbd 7e3e c1f2 983c cc9d 153f
00000320: 197c 4d3d d986 b9be e55d 1a3f 11d5 9f3e
00000330: 7f17 0d3f 6b05 bebd 92a5 873d cf05 063e
00000340: 01f2 9a3d 986c e3be 7d38 76bd 7fc7 1ebf
00000350: e4df 013e 3419 3cbe ef82 6bbe 80b8 573e
00000360: 2e58 eebe 3ea3 c4be ca95 d3be c04c 77bc
00000370: 1381 323d 320e 443e 35fe 4a3e e7f5 b8bd
00000380: 6ad4 443f c0e2 5cbf 1dae bd3e e697 f5be
00000390: 4e2d f33d 540f 60bf dbb0 31be e6d0 723d
000003a0: 86a6 12bc e3b0 f0bd a641 a23d c122 3c3e
000003b0: 130b ab3e 590a 3fbe 47d4 d33a e924 dbbd
000003c0: cab2 973e 5715 7dbe 8e4a 7c3e 457c fb3d
000003d0: f0a1 d7be 142e f93e cd6a 9bbe 7601 a83e
000003e0: 1400 88be bbcf 873d be34 4f3d 10b5 5abe
000003f0: 5561 5d3d adc6 ddbe 4d49 543e a5e3 69bd

fc1.bias f4 [64]
0.44254947 0.21841753 0.9983096 1.1384315 -0.18522911 0.48908225 0.22596018 0.7051729
0.53203696 0.9085535 0.944653 0.76528054 1.0217496 0.11891492 0.66164124 0.24037585
0.7281718 1.1431504 0.5573466 1.3095969 0.6494156 -0.084835425 0.009810366 0.4660829
1.0946966 1.2637836 0.66510993 1.3011646 1.318321 -0.22574213 1.2164366 -0.3030383
1.296638 1.0083892 0.2449156 1.0068156 1.2689168 1.2758157 -0.087524295 1.2374307
0.5068227 1.2856656 0.18050839 0.2060813 -0.051583912 1.0723104 1.4600979 1.3118069
1.3653253 0.044899944 0.24242929 0.35702017 -0.24469095 1.2153655 -0.37734073 -0.19615185
0.26791102 0.44741395 0.31168786 0.77163607 0.8213277 -0.24410297 1.0419805 1.1360588
00000000: d895 e23e d8a8 5f3e 3891 7f3f 20b8 913f
00000010: b3ac 3dbe fd68 fa3e 1b62 673e 3686 343f
00000020: 9333 083f f696 683f c7d4 713f 6de9 433f
00000030: b1c8 823f aa89 f33d 5261 293f 1625 763e
00000040: 7869 3a3f c152 923f 44ae 0e3f dfa0 a73f
00000050: 1a40 263f 32be adbd a8bb 203c 6ba2 ee3e
00000060: 051f 8c3f a9c3 a13f a544 2a3f 908c a63f
00000070: bebe a83f f228 67be 32b4 9b3f d627 9bbe
00000080: 3cf8 a53f e612 813f 28cb 7a3e 55df 803f
00000090: de6b a23f ee4d a33f f03f b3bd 2164 9e3f
000000a0: 22bf 013f b190 a43f 31d7 383e fa06 533e
000000b0: a749 53bd 7841 893f 7de4 ba3f 4ae9 a73f
000000c0: fbc2 ae3f 01e9 373d 623f 783e 59cb b63e
000000d0: 4490 7abe 1991 9b3f ce32 c1be 08dc 48be
000000e0: a22b 893e 7113 e53e 8d95 9f3e f189 453f
000000f0: 8842 523f 21f6 79be 9e5f 853f 606a 913f

fc2.weight f4 [64, 64]
0.91347337 0.3543612 0.6277838 0.22580884 -0.066915214 0.42044857 0.015898753 0.6725633
0.25645828 0.4890648 0.35978696 0.9163241 0.54911214 -0.1182349 0.617451 0.64132214
0.6101869 0.18453792 0.27865472 0.75766075 0.36145303 -0.15326284 -0.41833633 0.63264
0.5699423 0.59653527 0.35449448 0.6314559 0.7103365 -0.36882633 0.7420259 -0.6887994
0.32110122 1.13441 0.7604524 -0.18651247 0.6576381 0.6364251 0.08447367 0.73375106
-0.085419185 0.4465914 0.33477712 -0.28062636 -0.13629986 0.657905 0.25038716 -0.019982083
0.9598409 -0.33294046 -0.16127819 0.35847542 -0.062618345 0.23195568 -0.027379513 0.1364906
-0.16105907 0.9236354 0.2494592 0.06883289 0.52969885 -0.27410856 0.4358341 0.57379115
-0.029344037 0.13099317 0.22104514 0.321573 -0.47913945 0.15714574 -0.42117673 0.16543922
-0.03559914 0.24769887 0.1842228 -0.03481071 -0.19379564 -0.3817686 0.06859 -0.055195108
0.039598264 0.10606458 0.3569429 0.19292435 0.09918444 -0.398794 -0.07476642 0.42127937
0.17997763 -0.0004771718 -0.18513045 0.1556719 -0.03749095 -0.3829836 -0.07091015 0.09201036
0.2558654 0.45722547 0.2761305 0.03785317 0.09393176 0.20155498 -0.0914295 0.094438516
-0.092628784 0.2448387 0.06627864 -0.6850322 -0.41138145 -0.07691075 0.047193203 -0.049718678
0.3592602 -0.5284727 -0.02411764 -0.07646274 -0.25231883 0.058308974 -0.0017739683 0.23243076
-0.3423986 -0.010110937 0.056748673 -0.024735255 -0.050208453 -0.35545474 0.17578158 -0.20546369
-0.082591765 -0.042382527 -0.022034701 0.019207012 0.06497937 0.14153638 0.05292497 -0.04895068
-0.0651744 0.0003390228 0.22390512 0.05810804 -0.08677379 -0.12843044 -0.19559444 -0.16104773
0.088372946 -0.034988984 -0.15068306 0.05010128 0.10683359 -0.028191619 -0.3023447 0.09749232
-0.03864382 -0.075771436 0.05195108 -0.0706799 -0.14931118 0.062474046 0.053869154 -0.27501842
0.064328514 -0.022402784 -0.078533836 0.02160587 0.032807287 0.038148005 0.024865583 0.008005663
-0.038288645 0.07196099 -0.04620858 0.139163 -0.05125458 0.20046158 -0.008132568 -0.046760395
-0.02832911 -0.1605372 -0.111825034 -0.22445677 0.11310304 -0.07986287 0.05442989 -0.34884116
0.06858186 -0.086869486 0.0611999 -0.14172268 -0.09489611 0.07459592 0.020476261 -0.094795264
0.0020318944 -0.43707588 0.5057722 -0.0033638484 -0.16574702 0.25996304 -0.026374195 -0.1178629
-0.14720732 -0.0065085585 0.0740492 0.14840028 0.4438728 -0.11004949 0.53884536 0.647383
-0.019171724 0.18757097 0.5859689 0.2300954 0.1575493 -0.11296396 0.003880422 0.053081002
-0.007484509 0.024605205 0.587423 -0.20089002 0.6203435 0.21509394 0.52970886 0.0963365
0.453689 0.15548877 0.6697558 0.3937052 0.29584765 0.14604568 0.057556093 0.17999756
0.69615257 0.16068652 -0.093013965 0.5559935 -0.24050018 0.5591666 0.63048804 0.0609699
0.2524924 -0.16931541 0.9593686 0.6451175 -0.11032204 0.6278023 -0.063307524 0.540899
-0.01917815 -0.47270647 0.4603162 0.28428662 0.23180571 -0.28124467 0.26453993 0.43463203
00000000: 64d9 693f d56e b53e 70b6 203f 6f3a 673e
00000010: d80a 89bd 0945 d73e 1a3e 823c 1c2d 2c3f
00000020: 804e 833e b466 fa3e ff35 b83e 3794 6a3f
00000030: 9d92 0c3f 2425 f2bd 4511 1e3f b02d 243f
00000040: 3535 1c3f 82f7 3c3e d5ab 8e3e 0ef6 413f
00000050: 5f10 b93e eff0 1cbe 2e30 d6be b2f4 213f
00000060: bde7 113f 89b6 183f 4d80 b53e 18a7 213f
00000070: 9dd8 353f ced6 bcbe 69f5 3d3f 2855 30bf
00000080: 6167 a43e 5934 913f 02ad 423f 20fd 3ebe
00000090: f85a 283f c1ec 223f 8800 ad3d 1cd7 3b3f
000000a0: 41f0 aebd a1a7 e43e e867 ab3e 42ae 8fbe
000000b0: 3192 0bbe 766c 283f bf32 803e 77b1 a3bc
000000c0: 22b8 753f 2c77 aabe 1c26 25be 178a b73e
000000d0: 0c3e 80bd ca85 6d3e 004b e0bc 31c4 0b3e
000000e0: abec 24be 5f73 6c3f 3c72 7f3e 42f8 8c3d
000000f0: 589a 073f f557 8cbe a625 df3e fae3 123f
00000100: e862 f0bc 1323 063e a859 623e 37a5 a43e
00000110: c451 f5be d0ea 203e 7aa4 d7be e668 293e
00000120: 67d0 11bd c6a4 7d3e e7a4 3c3e ad95 0ebd
00000130: 5d72 46be 2d77 c3be ea78 8c3d 4414 62bd
00000140: ca31 223d 6338 d93d 38c1 b63e f68d 453e
00000150: 3621 cb3d ba2e ccbe 231f 99bd eeb1 d73e
00000160: 0e4c 383e ea2c fab9 d692 3dbe 7468 1f3e
00000170: 1c90 19bd 6d16 c4be 5739 91bd ed6f bc3d
00000180: ca00 833e 7519 ea3e fa60 8d3e ed0b 1b3d
00000190: 4b5f c03d 6e64 4e3e 643f bbbd fb68 c13d
000001a0: 29b4 bdbd ffb6 7a3e 18bd 873d 455e 2fbf
000001b0: 97a0 d2be 6283 9dbd a94d 413d d0a5 4bbd
000001c0: f4f0 b73e fd49 07bf 5b92 c5bc 7f98 9cbd
000001d0: ef2f 81be 64d5 6e3d 8084 e8ba 5402 6e3e
000001e0: df4e afbe 58a8 25bc 4c71 683d 97a1 cabc
000001f0: 61a7 4dbd 2afe b5be 1600 343e 1365 52be
00000200: df25 a9bd 4d99 2dbd 1e82 b4bc 0658 9d3c
00000210: e713 853d eaee 103e dac7 583d 8280 48bd
00000220: 287a 85bd dfbe b139 6247 653e b202 6e3d
00000230: 75b6 b1bd 4583 03be e949 48be b2e9 24be
00000240: e0fc b43d 9c50 0fbd a94c 1abe 0037 4d3d
00000250: 92cb da3d 1cf2 e6bc edcc 9abe 0eaa c73d
00000260: fb48 1ebd 0e2e 9bbd a8ca 543d a0c0 90bd
00000270: 08e5 18be c9e4 7f3d e7a5 5c3d 37cf 8cbe
00000280: abbe 833d 0b86 b7bc 59d6 a0bd cbfe b03c
00000290: ef60 063d 1541 1c3d e8b2 cb3c 2f2a 033c
000002a0: 8ed4 1cbd 4960 933d 3545 3dbd bf80 0e3e
000002b0: 53f0 51bd cd45 4d3e 763e 05bc d487 3fbd
000002c0: 7312 e8bc dd63 24be 8604 e5bd ffd7 65be
000002d0: 91a2 e73d 258f a3bd e0f1 5e3d 4f9b b2be
000002e0: a574 8c3d a1e8 b1bd bfac 7a3d c01f 11be
000002f0: e458 c2bd bfc5 983d d5bd a73c 0524 c2bd
00000300: 8829 053b 69c8 dfbe 497a 013f 0374 5cbb
00000310: 96b9 29be e019 853e b20e d8bc 1b62 f1bd
00000320: 84bd 16be bf45 d5bb 1ba7 973d 3ef6 173e
00000330: 4c43 e33e a161 e1bd c5f1 093f e4ba 253f
00000340: 050e 9dbc 9b12 403e 0f02 163f 219e 6b3e
00000350: 9b54 213e a659 e7bd ae4e 7e3b 776b 593d
00000360: 9d40 f5bb db90 c93c 5b61 163f 1db6 4dbe
00000370: d5ce 1e3f 9641 5c3e 009b 073f 124c c53d
00000380: ed49 e83e 7338 1f3e 1e75 2b3f ba93 c93e
00000390: 5879 973e 008d 153e f0bf 6b3d 4851 383e
000003a0: 0e37 323f 028b 243e 1b7e bebd 9755 0e3f
000003b0: ae45 76be 8b25 0f3f aa67 213f 93bb 793d
000003c0: af46 813e 0561 2dbe 2e99 753f 6c26 253f
000003d0: 86f0 e1bd a7b7 203f 60a7 81bd 5b78 0a3f
000003e0: 7f1b 9dbc 9506 f2be 91ae eb3e 048e 913e
000003f0: 7a5e 6d3e 4dff 8fbe c771 873e 1788 de3e

fc2.bias f4 [64]
0.7734773 0.21926847 0.2197005 -0.0021025494 0.4486897 0.7464457 0.19239971 0.39528862
0.16072376 0.22255187 0.2010105 0.17482176 0.064972624 -0.012101022 -0.115768954 -0.0049463804
0.8145371 0.1411804 0.13661066 0.13038425 0.10056124 0.5315146 0.3916432 0.23378105
0.6172623 0.17221417 0.2996416 0.20045471 0.25526595 0.17636731 0.17096801 0.42673713
-0.082071476 0.033438176 0.090948805 0.020634033 0.43621132 -0.035329904 0.6533275 0.19054453
0.16706511 0.3250486 0.13032423 -0.010654966 0.1764283 -0.00685744 0.024706127 0.0701678
0.3000126 0.25455067 0.14708923 0.48879433 0.7974273 0.19140252 0.11790287 0.09814094
0.41202155 0.12029777 0.4172511 0.046504512 0.6169018 0.07482536 0.17672428 0.6039769
00000000: 9c02 463f ea87 603e 2bf9 603e edca 09bb
00000010: a8ba e53e 1117 3f3f 6e04 453e 4563 ca3e
00000020: c594 243e a3e4 633e b2d5 4d3e 7a04 333e
00000030: 5e10 853d 5d43 46bc 4618 edbd 3f15 a2bb
00000040: 8185 503f 9891 103e aae3 0b3e 7383 053e
00000050: 0df3 cd3d 5711 083f 7585 c83e 4d64 6f3e
00000060: e704 1e3f e958 303e a06a 993e 0044 4d3e
00000070: 38b2 823e a299 343e 3d12 2f3e 4a7d da3e
00000080: 1715 a8bd 78f6 083d 5e43 ba3d b408 a93c
00000090: 1757 df3e 17b6 10bd 7940 273f 1b1e 433e
000000a0: 1e13 2b3e c56c a63e b773 053e 2b92 2ebc
000000b0: 9fa9 343e 60b4 e0bb 8164 ca3c 23b4 8f3d
000000c0: 409b 993e 7754 823e 8f9e 163e 4043 fa3e
000000d0: 3224 4c3f 06ff 433e 0f77 f13d 1efe c83d
000000e0: 7df4 d23e ad5e f63d f0a1 d53e 847b 3e3d
000000f0: 47ed 1d3f 0a3e 993d 36f7 343e 3b9e 1a3f

fc3.weight f4 [4, 64]
-0.003232097 -0.6927493 0.00017313537 -0.51892716 -0.525586 -0.024462132 -0.7036092 -1.0969778
-0.32981306 -0.3839307 -0.34368193 -0.30498195 -0.013076022 -0.15498486 -0.038329694 0.052981745
-0.23681033 -0.5304496 -0.33540118 -0.010150727 -0.5680685 -0.22159995 0.30919853 -0.38612583
-0.44673035 0.35971248 -0.2964737 -0.35986924 -0.4065641 -0.44192037 -0.48692593 -0.9751749
-0.47860694 0.0032984912 0.3088662 0.16007179 -0.6293017 -0.33625096 0.2827474 -0.37988487
-0.3607033 0.3261514 0.19569705 0.19303197 0.030268213 0.069806665 -0.35296988 -0.3189408
-0.8430995 -0.44672436 -0.37901524 0.5838344 0.15367275 0.46253017 -0.44263104 -0.016343681
-0.61125463 -0.5030106 -0.8351924 -0.011420533 0.090262935 0.08624732 -0.6187953 0.32712966
-0.111509405 -0.71308047 0.09673811 -0.20953979 -0.62189096 -0.052455317 -0.3734438 -0.6814021
-0.5267728 -0.47046062 -0.48843443 -0.2907528 0.0747861 0.042222735 0.07517708 0.099832244
-0.16929221 -0.34214422 -0.22595239 0.120038375 -0.7421249 -0.16584222 0.31549564 -0.33265
-0.5106273 0.090241 0.0038966716 -0.3411475 -0.31999242 -0.4989701 -0.4979581 -0.87512285
-0.4975429 -0.020412445 0.32241642 0.06482152 -0.3483167 -0.6755767 0.23664756 -0.3258431
-0.44307965 0.15799269 -0.096364364 0.111552574 0.08339304 0.07227166 -0.38835803 -0.03455219
-0.6579191 -0.4536268 -0.13892083 0.086305365 -0.11283506 0.422523 -0.45177472 0.0010410179
-0.45161036 -0.3432719 -0.69445604 0.0899055 0.07775086 0.05060133 -0.54581016 0.4228876
0.3798758 -0.38790005 0.16914953 -0.6957146 -0.64937806 0.3550534 -0.3479618 -0.75446254
-0.27847046 -0.2973908 -0.37501052 -0.17923322 -0.074247494 -0.045272313 0.06611021 0.018370079
-0.042680316 -0.17135149 -0.11587162 0.15281227 -0.17962937 -0.5853333 0.11635649 -0.0434631
-0.890243 0.30188802 0.36630133 -0.33633292 -0.19196463 -0.23469707 -0.21395664 -0.5839322
-0.15483093 0.020255372 0.4508794 -0.27823886 -0.61811006 -0.23222762 0.08750107 -0.029816093
-0.03689617 0.25505847 0.20124856 0.035817843 0.09709765 0.12040916 -0.18572687 -0.309384
-0.46883443 -0.14309435 -0.4825666 0.3637213 0.4563528 0.35622936 -0.22897653 0.09995224
-0.0076679504 -0.45607015 -0.51803404 -0.0079178065 0.396535 -0.06737294 -0.062455066 0.3998012
-0.17364825 -0.3364548 0.02526712 -0.0737988 -0.65381217 -0.0027759657 -0.36594936 -0.69001466
-0.27861017 -0.28259054 -0.47120285 -0.17894748 0.10958201 -0.056684796 0.07861135 0.08808299
-0.87676954 -0.37322557 -0.34009343 -0.4975446 -0.24039502 -0.03533719 0.31958452 -0.106488995
-0.8200868 0.45813668 -0.1662925 -0.38551491 -0.18827593 -0.29310232 -0.20632802 -0.6170343
-0.3507633 0.019762903 -0.62057257 0.12037587 -0.78664815 -1.0457631 0.1553145 -0.3569217
-0.2231949 0.22318794 0.1705838 0.31062937 -0.13161622 -0.05837795 -0.46268693 -0.08614242
-0.50538075 -0.37729797 0.018046234 0.024021972 -0.030510878 0.109062955 -0.27227798 0.022631358
-0.41634083 -0.065053724 -0.6783393 -0.0024340749 0.13954969 0.046237618 -0.44347975 -0.33080307
00000000: 97d1 53bb 0558 31bf ac8b 3539 69d8 04bf
00000010: ce8c 06bf cf64 c8bc bc1f 34bf c569 8cbf
00000020: 42dd a8be 9192 c4be 14f7 afbe 9826 9cbe
00000030: d03c 56bc 5ab4 1ebe 99ff 1cbd 6303 593d
00000040: 687e 72be 8ccb 07bf b4b9 abbe 3c4f 26bc
00000050: f06c 11bf 19eb 62be 454f 9e3e 49b2 c5be
00000060: d7b9 e4be 3c2c b83e 67cb 97be c840 b8be
00000070: 2b29 d0be 6343 e2be 5b4e f9be 10a5 79bf
00000080: f80b f5be 802b 583b b623 9e3e dce9 233e
00000090: eb19 21bf 1629 acbe 44c4 903e 4580 c2be
000000a0: 1aae b8be 51fd a63e cf64 483e 2caa 453e
000000b0: 0bf5 f73c ccf6 8e3d 78b8 b4be 354c a3be
000000c0: 5ed5 57bf 0eb9 e4be 490e c2be 2c76 153f
000000d0: 645c 1d3e c1d0 ec3e 89a0 e2be 2fe3 85bc
000000e0: 2f7b 1cbf 4dc5 00bf 2bcf 55bf 301d 3bbc
000000f0: c6db b83d 6fa2 b03d 5e69 1ebf 8a7d a73e
00000100: 0b5f e4bd 718c 36bf a11e c63d 9991 56be
00000110: 3f34 1fbf 63db 56bd 0734 bfbe 5e70 2ebf
00000120: 95da 06bf 37e0 f0be 1414 fabe 8ddd 94be
00000130: 7429 993d bff1 2c3d 71f6 993d d974 cc3d
00000140: f05a 2dbe 872d afbe 1060 67be aed6 f53d
00000150: e6fb 3dbf 8bd2 29be a588 a13e 1a51 aabe
00000160: 79b8 02bf 46d0 b83d 4d5f 7f3b e3aa aebe
00000170: 0cd6 a3be 0279 ffbe 5df4 febe 0d08 60bf
00000180: f1bd febe 0038 a7bc c413 a53e 25c1 843d
00000190: 9156 b2be 98f2 2cbf bd53 723e e8d4 a6be
000001a0: 56db e2be d6c8 213e ae5a c5bd ad75 e43d
000001b0: f8c9 aa3d 2a03 943d ddd6 c6be 9986 0dbd
000001c0: 636d 28bf c641 e8be 4341 0ebe dec0 b03d
000001d0: 1116 e7bd ef54 d83e 044f e7be c472 883a
000001e0: 7939 e7be 56c1 afbe dfc7 31bf 6020 b83d
000001f0: d83b 9f3d 5743 4f3d 37ba 0bbf b984 d83e
00000200: 157f c23e d69a c6be 8935 2d3e 5a1a 32bf
00000210: a43d 26bf 8fc9 b53e 0d28 b2be 7524 41bf
00000220: ae93 8ebe 9b43 98be 6101 c0be ea88 37be
00000230: 120f 98bd 766f 39bd ca64 873d d97c 963c
00000240: 8ed1 2ebd c476 2fbe 1a4e edbd d27a 1c3e
00000250: c3f0 37be 67d8 15bf 504c ee3d 5d06 32bd
00000260: f7e6 63bf 1191 9a3e d98b bb3e d433 acbe
00000270: 6092 44be 6e54 70be 7317 5bbe 957c 15bf
00000280: 008c 1ebe 98ee a53c aad9 e63e 5375 8ebe
00000290: 763c 1ebf 14cd 6dbe c333 b33d e140 f4bc
000002a0: 7020 17bd 0697 823e 1a14 4e3e bbb5 123d
000002b0: 22db c63d 1499 f63d 2f2f 3ebe 9467 9ebe
000002c0: 110b f0be 5387 12be f812 f7be ae39 ba3e
000002d0: 13a7 e93e b263 b63e d378 6abe c3b3 cc3d
000002e0: 6e43 fbbb 0782 e9be e19d 04bf b0b9 01bc
000002f0: a306 cb3e d3fa 89bd e2d0 7fbd beb2 cc3e
00000300: d9d0 31be ce43 acbe fefc ce3c d323 97bd
00000310: 3c60 27bf faec 35bb b75d bbbe cda4 30bf
00000320: fea5 8ebe b5af 90be 8041 f1be 023e 37be
00000330: 886c e03d 512e 68bd fdfe a03d db64 b43d
00000340: f873 60bf 6c17 bfbe ba20 aebe 2abe febe
00000350: 1d2a 76be bbbd 10bd 95a0 a33e e716 dabd
00000360: 35f1 51bf e490 ea3e 9548 2abe 3662 c5be
00000370: 68cb 40be 8211 96be a747 53be f6f5 1dbf
00000380: 3f97 b3be d0e5 a13c d8dd 1ebf a087 f63d
00000390: c661 49bf 91db 85bf c40a 1f3e 71be b6be
000003a0: 348d 64be 618b 643e 85ad 2e3e d00a 9f3e
000003b0: 67c6 06be b81d 6fbd 4de5 ecbe 706b b0bd
000003c0: a260 01bf 332d c1be b2d5 933c bac9 c43c
000003d0: f3f1 f9bc 665c df3d 0568 8bbe 6665 b93c
000003e0: a02a d5be e33a 85bd a5a7 2dbf 0085 1fbb
000003f0: 1de6 0e3e a863 3d3d c70f e3be 055f a9be

fc3.bias f4 [4]
-0.35990787 -0.14669143 -0.25713643 -0.3152802
00000000: d845 b8be 4736 16be 63a7 83be 686c a1be
