HW2/rob538a2/dqn_2agents_p3_a2.pth (torch, 20823 bytes, 6 tensors)

fc1.weight f4 [64, 4]
-0.40953335 0.15928452 0.05677889 -0.34527534 0.16859905 -0.31484267 0.58488894 -0.40422925
0.22539587 -0.09744404 -0.2635865 0.15169938 0.30983734 0.6807701 1.106502 0.35401306
-0.18036234 -0.025649428 -0.2961516 0.003533662 0.6668855 -0.48692983 0.7270725 -0.4581482
-0.14939825 -0.21061452 -0.15831238 0.04124157 0.4729941 -0.05840936 0.07240973 -0.053663082
0.78847957 -0.6802969 0.16003968 -0.59759605 -0.00978596 -0.010014498 -0.5436375 0.31461957
-0.17665394 -0.20807198 -0.27580717 -0.48335737 0.545872 0.17860648 -0.11338454 0.74682766
-0.61059994 0.505913 -0.11027112 0.05917934 0.3843476 -0.4954826 0.16437024 0.09634919
0.6434536 -0.12255308 -0.03659532 0.09133066 0.47519875 -0.21933222 -0.221987 0.34609687
-0.5014877 -0.16715673 0.36359614 -0.38388726 0.77272224 0.043579698 0.17449605 0.60252184
0.045835044 -0.14916453 0.18139403 -0.47027257 0.0921058 -0.023675004 -0.047863003 -0.20578769
0.37248546 -0.10478677 0.26009023 0.6512487 -0.3394882 -0.17072695 -0.017139375 -0.3870129
-0.08315988 -0.2949227 -0.06057364 0.07213799 -0.00051909685 -0.06458366 -0.22545063 -0.34538537
-0.06824797 -0.2572927 -0.017040772 0.22818366 0.5529547 -0.1170306 0.07907657 -0.030497361
0.25402412 0.11710779 0.35126027 0.97474664 -0.118137926 0.047588 0.33640346 -0.7137881
0.0007651415 -0.24097215 -0.4840555 0.17010462 0.33010384 -0.15379182 -0.19682671 0.5103202
-0.14279895 -0.18692872 -0.114323355 0.15665746 0.85590994 -0.42625874 -0.59455943 0.8350809
-0.1852851 0.066709034 -0.33971727 -0.11707642 0.23064761 -0.15461369 0.64847904 -0.5728581
0.13076448 -0.051849876 0.09424434 0.6410471 0.54059064 -0.28269327 -0.31333894 0.06001498
0.32585138 -0.47177806 0.26015216 -0.297766 -0.13437463 -0.085465714 -0.26756275 -0.1850835
0.029851949 0.1904589 -0.17579962 0.4029117 -0.69663405 0.045822714 -0.8083603 -0.22493508
-0.20657174 0.031699505 -0.29039302 0.15417622 0.52707165 -0.23621024 -0.40966085 0.5152284
-0.019212771 -0.008941176 -0.73453665 0.5212669 0.32390466 -0.065386675 -0.109122366 -0.22689462
-0.07119084 -0.09558133 0.3701143 0.4140336 0.8383163 -0.8308878 -0.77249867 0.35415667
-0.3951376 -0.36919284 0.36637682 0.43274158 -0.33141065 0.38393497 0.19881417 -0.04325435
-0.26707312 -0.11752229 -0.13137373 0.07358348 0.70661205 -0.27246672 -0.49138713 0.085398585
-0.12374039 -0.045384284 -0.45440084 0.21287754 0.05716613 0.002738082 -0.07050149 -0.2340366
0.2688141 -0.55781376 0.09223143 -0.36825958 0.069371514 -0.03178284 -0.2489749 0.18895511
-0.15086596 -0.011993085 0.5956612 -1.2897421 -0.011942027 -0.5662862 -0.915694 0.7773523
0.22766608 -0.15176289 0.15189108 0.2765427 0.547625 -0.23862287 -0.06339793 -0.12829462
0.7529236 -0.16124602 -0.5797132 0.07737997 -0.027415486 -0.14027527 -0.21954629 0.5650471
-0.23307644 -0.078019395 -0.16769147 -0.17397799 0.31362534 -0.24969836 0.4052776 0.10771955
-0.12809235 -0.17610592 -0.4525733 -0.06538546 0.14046185 -0.1043595 0.07298592 0.049958043
00000000: 5bae d1be 7b1b 233e fb90 683d eec7 b0be
00000010: 3ba5 2c3e 0f33 a1be 48bb 153f 23f7 cebe
00000020: 2dce 663e be90 c7bd cff4 86be 1557 1b3e
00000030: 00a3 9e3e f346 2e3f dca1 8d3f 3341 b53e
00000040: e8b0 38be c01e d2bc 2fa1 97be 0395 673b
00000050: 02b9 2a3f de4e f9be 6c21 3a3f 6792 eabe
00000060: dbfb 18be 55ab 57be a41c 22be ecec 283d
00000070: 482c f23e a73e 6fbd 8d4b 943d d2cd 5bbd
00000080: ccd9 493f f027 2ebf 71e1 233e 0efc 18bf
00000090: 4b55 20bc d913 24bc d42b 0bbf d115 a13e
000000a0: c5e4 34be d210 55be 9936 8dbe 9e7a f7be
000000b0: 44be 0b3f 9ee4 363e 2736 e8bd 1930 3f3f
000000c0: 4750 1cbf 8483 013f d3d5 e1bd 0966 723d
000000d0: 35c9 c43e e5af fdbe ac50 283e b952 c53d
000000e0: 60b9 243f 1cfd fabd f9e4 15bd 920b bb3d
000000f0: 404d f33e a098 60be 8f50 63be 9c33 b13e
00000100: 7f61 00bf 222b 2bbe 4629 ba3e df8c c4be
00000110: 20d1 453f a080 323d 18af 323e df3e 1a3f
00000120: 87bd 3b3d 96be 18be 5bbf 393e 91c7 f0be
00000130: f7a1 bc3d 15f2 c1bc ff0b 44bd 02ba 52be
00000140: 6ab6 be3e 729a d6bd 8c2a 853e 3cb8 263f
00000150: 66d1 adbe 0cd3 2ebe e067 8cbc 8e26 c6be
00000160: ba4f aabd 1c00 97be 111c 78bd 15bd 933d
00000170: 0014 08ba 7044 84bd 88dc 66be 5ad6 b0be
00000180: 97c5 8bbd debb 83be 1799 8bbc faa8 693e
00000190: 708e 0d3f bdad efbd e6f2 a13d 9ad5 f9bc
000001a0: 730f 823e 36d6 ef3d 63d8 b33e ff88 793f
000001b0: 4cf2 f1bd a2eb 423d 133d ac3e d1ba 36bf
000001c0: c793 483a 67c1 76be 1fd6 f7be e82f 2e3e
000001d0: 5f03 a93e 9a7b 1dbe f18c 49be 58a4 023f
000001e0: e339 12be 3e6a 3fbe 5d22 eabd d06a 203e
000001f0: ea1c 5b3f 963e dabe 0c35 18bf ddc7 553f
00000200: 61bb 3dbe bf9e 883d 6cef adbe c3c5 efbd
00000210: e32e 6c3e 0d53 1ebe b902 263f d4a6 12bf
00000220: 20e7 053e 8960 54bd 2d03 c13d aa1b 243f
00000230: 2664 0a3f 2cbd 90be f66d a0be 45d2 753d
00000240: fed5 a63e e58c f1be aa32 853e c974 98be
00000250: 8199 09be a608 afbd fcfd 88be 8786 3dbe
00000260: 138c f43c a807 433e d104 34be 714a ce3e
00000270: 9c56 32bf 99b0 3b3d b3f0 4ebf 6255 66be
00000280: 8b87 53be 57d7 013d 65ae 94be 5fe0 1d3e
00000290: 2bee 063f 19e1 71be 11bf d1be 02e6 033f
000002a0: 1a64 9dbc 037e 12bc 980a 3cbf bf71 053f
000002b0: d5d6 a53e 73e9 85bd 8c7b dfbd 1057 68be
000002c0: 81cc 91bd 25c0 c3bd 9f7f bd3e 36fc d33e
000002d0: e69b 563f 10b5 54bf 79c2 45bf 0654 b53e
000002e0: 7a4f cabe d806 bdbe be95 bb3e 4e90 dd3e
000002f0: a8ae a9be 2093 c43e f195 4b3e 792b 31bd
00000300: cfbd 88be 87af f0bd d686 06be f0b2 963d
00000310: 87e4 343f c280 8bbe 1897 fbbe 74e5 ae3d
00000320: 9a6b fdbd dfe4 39bd 3aa7 e8be 92fc 593e
00000330: 0827 6a3d 6571 333b 1663 90bd 4aa7 6fbe
00000340: 00a2 893e e2cc 0ebf d5e3 bc3d 858c bcbe
00000350: a712 8e3d b92e 02bd 47f3 7ebe 737d 413e
00000360: 9b7c 1abe a57e 44bc 417d 183f 4516 a5bf
00000370: 7ea8 43bc 22f8 10bf ec6a 6abf 8f00 473f
00000380: 4c21 693e bb67 1bbe 5689 1b3e 0197 8d3e
00000390: 2731 0c3f 8e59 74be c6d6 81bd aa5f 03be
000003a0: 9abf 403f ad1d 25be 1668 14bf 6479 9e3d
000003b0: 7196 e0bc 52a4 0fbe bed0 60be eda6 103f
000003c0: 97ab 6ebe a2c8 9fbd 50b7 2bbe 4927 32be
000003d0: 8093 a03e edb0 7fbe 8c80 cf3e 119c dc3d
000003e0: a42a 03be 1c55 34be b0b7 e7be d0e8 85bd
000003f0: 3bd5 0f3e 6fba d5bd a479 953d cea0 4c3d

fc1.bias f4 [64]
1.5459626 1.1688128 0.74516094 0.67015535 0.70521736 0.7195399 1.4453518 0.17702182
0.6703669 1.70534 0.23577785 1.2829837 0.17496976 0.7168331 0.49922916 1.1892827
0.47227067 0.48206177 1.118321 1.6794901 -0.19003835 -0.41525292 1.7077159 -0.30934507
1.3237761 0.6576608 -0.14039516 1.3180304 0.5153752 0.92660886 1.2243793 0.23460756
1.3860791 -0.14028405 1.6272671 1.6242653 -0.098182335 1.8053142 -0.458957 -0.414558
0.71980417 -0.25776035 -0.19463731 0.76851547 -0.2617871 0.10561291 0.8072224 0.7387244
0.42791647 0.9145411 1.7732129 1.8503027 -0.36178485 0.9974856 0.23216109 -0.62977135
0.18398827 0.31241655 -0.6618641 0.42465994 0.9064969 0.4241102 -0.038355827 0.49546522
00000000: 1ae2 c53f a89b 953f dec2 3e3f 4d8f 2b3f
00000010: 2089 343f c433 383f 4a01 b93f 3545 353e
00000020: 2a9d 2b3f 9548 da3f c06f 713e cf38 a43f
00000030: 462b 333e 6082 373f f79a ff3e 6a3a 983f
00000040: 76cd f13e cdd0 f63e 2425 8f3f 88f9 d63f
00000050: 6a99 42be 089c d4be 6f96 da3f 7a62 9ebe
00000060: 7f71 a93f 755c 283f c0c3 0fbe 38b5 a83f
00000070: a1ef 033f 3d36 6d3f 76b8 9c3f f73c 703e
00000080: 0a6b b13f 9fa6 0fbe 4a4a d03f ede7 cf3f
00000090: d213 c9bd 8914 e73f 69fc eabe f240 d4be
000000a0: 1645 383f 2af9 83be 014f 47be 6ebd 443f
000000b0: f508 86be 954b d83d 21a6 4e3f 0b1d 3d3f
000000c0: de17 db3e 5e1f 6a3f a4f8 e23f b8d6 ec3f
000000d0: dd3b b9be 375b 7f3f a3bb 6d3e b238 21bf
000000e0: 6c67 3c3e 10f5 9f3e ed6f 29bf 076d d93e
000000f0: 2e10 683f f924 d93e 001b 1dbd 9ead fd3e

fc2.weight f4 [64, 64]
0.10802277 0.061059467 0.15981948 -0.33954892 0.5182701 -0.017332274 0.19479197 0.07298419
-0.08051615 0.07709491 0.35391757 -0.24137533 -0.12785402 -0.20946983 0.1874269 -0.25462964
-0.008180689 -0.44952646 0.10326653 -0.28186655 -0.534262 -0.053220943 -0.30618674 0.020693839
0.14940263 0.0093429675 -0.5310919 -0.039971948 -0.030246694 0.16137838 0.4212394 -0.22515315
-0.038704675 -0.14610206 -0.28234696 -0.28135008 -0.2194301 0.3941626 -0.31312206 -0.13641748
0.16224946 -0.5355723 -0.49971136 -0.072124414 -0.38446647 -0.026015187 0.12494879 -0.10357109
0.5990967 -0.11064056 0.024679115 0.096823625 0.00034345887 -0.02168879 -0.36615306 -0.08719604
0.06298636 0.031877156 -0.3725843 0.06347679 0.64522594 -0.10318534 0.062636435 0.4160626
-0.010029982 0.100543626 -0.033541694 -0.055380743 -0.019479953 0.23281573 0.086000524 0.14428914
0.14512436 -0.08931923 -0.079047605 -0.046076056 -0.17724803 0.069608636 0.109527305 0.07927982
-0.1537385 0.16129369 0.156874 0.030446265 0.025687477 0.100850835 0.041297805 0.069584414
0.09237448 0.17558077 -0.05701429 0.1315885 -0.115375794 0.11325441 -0.08857613 -0.12860774
-0.007257407 0.040425476 0.050944224 -0.038524643 0.18118928 0.039603867 -0.04683747 0.03133011
-0.113225594 -0.030333862 -0.2097919 0.07942596 0.06495422 -0.078335576 -0.13015203 -0.13929832
0.04410997 0.015552716 -0.116391286 0.0714217 -0.03004134 0.1311825 -0.0032009645 -0.1563593
0.05878284 0.27388155 -0.0045445138 -0.17070651 -0.020473188 0.11623378 -0.078695655 0.05806527
-0.030179657 0.104279995 0.11643005 -0.39226523 0.27473953 -0.24929474 0.10113656 -0.1023743
-0.38482726 0.020040594 0.35420012 -0.26995182 -0.17362383 -0.22369918 0.059688542 -0.28899068
0.24475054 -0.3672412 0.20124337 -0.078695424 -0.28018036 0.05133818 -0.23070653 0.009150535
0.102559544 0.16526766 -0.30973676 0.111834794 0.0086920755 0.04325807 0.2999824 -0.07626175
-0.016049374 -0.28774595 -0.2123248 -0.26195988 -0.11693408 0.124718264 -0.24276063 -0.2201684
0.19971895 -0.42167148 -0.31363136 -0.0096270675 -0.23572662 -0.07368499 0.114753194 -0.10333051
0.37245387 -0.20054471 -0.013920098 0.24040303 -0.14494184 -0.1682375 -0.36610845 -0.3084375
-0.18029457 -0.11844196 -0.20653553 0.08950524 0.42000824 -0.17764758 0.09111294 0.29718313
-0.21619163 0.13707487 -0.02614881 -0.47770923 0.57777756 -0.101169966 -0.0069075227 0.0346336
-0.18575457 0.04463674 0.47069642 -0.3593811 -0.12203629 -0.011215096 0.22044776 -0.31862366
0.18674783 -0.29337868 0.14172709 -0.003955667 -0.39388132 0.0017282963 -0.009068279 -0.11361869
-0.059738114 -0.024498677 -0.44454855 0.07136969 0.06016123 0.01977339 0.30350173 -0.1459006
-0.09518925 -0.09742483 -0.25003672 -0.1363784 -0.010425208 0.13403794 -0.30295533 -0.113257796
0.078414224 -0.5256649 -0.43876228 0.05550795 -0.33746892 0.063401334 0.0910078 -0.041382037
0.4846822 -0.10096012 0.007617068 0.10218281 -0.055121906 -0.124531075 -0.2978952 -0.07990932
-0.13678548 0.05279049 -0.34892905 0.095000096 0.5349866 0.0057328506 -0.028523445 0.5346164
00000000: 0b3b dd3d 7e19 7a3d b8a7 233e 5bd9 adbe
00000010: 59ad 043f 6afc 8dbc 8c77 473e bc78 953d
00000020: a7e5 a4bd f0e3 9d3d af34 b53e 182b 77be
00000030: 2aec 02be 427f 56be d6ec 3f3e d15e 82be
00000040: 4c08 06bc 5528 e6be 677d d33d d050 90be
00000050: 65c5 08bf 34fe 59bd 82c4 9cbe 2086 a93c
00000060: 01fd 183e 3f13 193c a4f5 07bf a0b9 23bd
00000070: eac7 f7bc 6040 253e b1ac d73e 8c8e 66be
00000080: cb88 1ebd c79b 15be c88f 90be 1e0d 90be
00000090: 49b2 60be aecf c93e 8951 a0be 06b1 0bbe
000000a0: b924 263e 441b 09bf 2bda ffbe f7b5 93bd
000000b0: cad8 c4be cd1d d5bc 27e5 ff3d 141d d4bd
000000c0: 675e 193f 8597 e2bd db2b ca3c 774b c63d
000000d0: 4512 b439 b0ac b1bc 6a78 bbbe d693 b2bd
000000e0: fefe 803d 9f91 023d 5fc3 bebe 1f00 823d
000000f0: 872d 253f d652 d3bd 8847 803d 2806 d53e
00000100: cb54 24bc d1e9 cd3d 0463 09bd ebd6 62bd
00000110: 6c94 9fbc 3f67 6e3e 0b21 b03d 88c0 133e
00000120: 7b9b 143e 00ed b6bd b6e3 a1bd 3fba 3cbd
00000130: 8280 35be f98e 8e3d da4f e03d 755d a23d
00000140: a06d 1dbe 2c2a 253e 94a3 203e 726a f93c
00000150: 8b6e d23c e28a ce3d e327 293d 4682 8e3d
00000160: d52e bd3d 72cb 333e d187 69bd 23bf 063e
00000170: 254a ecbd eef1 e73d 6767 b5bd bfb1 03be
00000180: 8bcf edbb 2f95 253d e4aa 503d 04cc 1dbd
00000190: af89 393e aa37 223d a6d8 3fbd 0054 003d
000001a0: d2e2 e7bd b87e f8bc b0d3 56be 14aa a23d
000001b0: b806 853d 676e a0bd 9346 05be 38a4 0ebe
000001c0: a8ac 343d d2d0 7e3c 8e5e eebd 8a45 923d
000001d0: 4219 f6bc b554 063e 46c7 51bb a71c 20be
000001e0: 46c6 703d 343a 8c3e 25ea 94bb b0cd 2ebe
000001f0: 63b7 a7bc fa0b ee3d 302b a1bd d9d5 6d3d
00000200: 543b f7bc c090 d53d e172 ee3d fdd6 c8be
00000210: a9aa 8c3e 1f47 7fbe af20 cf3d 9ea9 d1bd
00000220: 1408 c5be 2c2c a43c b859 b53e 2037 8abe
00000230: 72ca 31be 6611 65be f97b 743d 96f6 93be
00000240: e39f 7a3e 0a07 bcbe be12 4e3e 112b a1bd
00000250: cd73 8fbe fc47 523d 553e 6cbe 20ec 153c
00000260: bd0a d23d ed3b 293e d195 9ebe a409 e53d
00000270: 3569 0e3c 602f 313d 4b97 993e 1f2f 9cbd
00000280: fa79 83bc 7053 93be ac6b 59be 9b1f 86be
00000290: 237b efbd 4a6c ff3d 3e96 78be d373 61be
000002a0: 2083 4c3e 53e5 d7be 4a94 a0be d9ba 1dbc
000002b0: 5262 71be 28e8 96bd b903 eb3d f29e d3bd
000002c0: 46b2 be3e 985b 4dbe 1f11 64bc 362c 763e
000002d0: a26b 14be 7446 2cbe 9172 bbbe 85eb 9dbe
000002e0: 249f 38be b391 f2bd 0d7e 53be 864e b73d
000002f0: 520b d73e 3fe9 35be 6c99 ba3d 6328 983e
00000300: 5761 5dbe 5b5d 0c3e 0736 d6bc 4e96 f4be
00000310: 3be9 133f 3332 cfbd 8058 e2bb f6db 0d3d
00000320: 7236 3ebe 04d5 363d 1fff f03e cd00 b8be
00000330: 2aee f9bd 86bf 37bc 0fbd 613e a422 a3be
00000340: d33a 3f3e bb35 96be e820 113e 8a9e 81bb
00000350: d0aa c9be 0088 e23a 1e93 14bc eab0 e8bd
00000360: f4af 74bd 73b1 c8bc de9b e3be 462a 923d
00000370: 9f6b 763d cefb a13c 9464 9b3e f866 15be
00000380: 95f2 c2bd ab86 c7bd d004 80be c7a6 0bbe
00000390: 7ece 2abc 3e41 093e f61c 9bbe b4f3 e7bd
000003a0: a397 a03d fa91 06bf 73a5 e0be 4e5c 633d
000003b0: bac8 acbe 8fd8 813d 4c62 ba3d 3680 29bd
000003c0: 4428 f83e 2ec4 cebd 9998 f93b 3945 d13d
000003d0: 82c7 61bd 260a ffbd b885 98be 7fa7 a3bd
000003e0: 7e11 0cbe d73a 583d d4a6 b2be 698f c23d
000003f0: e2f4 083f a3da bb3b 00aa e9bc 9fdc 083f

fc2.bias f4 [64]
0.38907692 0.13453029 0.1935235 0.21479584 0.059610054 0.25202414 0.28837037 0.6352275
0.2532236 0.13931149 0.27389663 0.23934823 0.39880008 0.53574467 0.44408593 0.36876154
0.2285752 -0.25795662 0.18478015 0.12059359 0.40248784 0.32510808 0.2778414 0.10103405
0.42057803 0.2630944 0.34870085 0.15261652 -8.974768e-05 -0.13269612 0.43332174 0.22516389
0.1291599 0.16945367 0.48106748 0.19740878 0.19616376 0.33555847 0.50387055 0.4271508
0.23088071 -0.17302781 0.16533907 0.16225955 -0.06259741 0.26815525 0.35553214 0.20856926
-0.018901443 0.22358724 0.04767502 0.3419028 0.17132324 0.26545024 -0.07106364 0.26008573
-0.1059801 0.04635291 0.2146192 0.4063221 0.2131617 0.24708308 0.23305891 0.3022941
00000000: 1735 c73e 4fc2 093e 062b 463e 71f3 5b3e
00000010: ac29 743d 4f09 813e 48a5 933e 459e 223f
00000020: 86a6 813e aca7 0e3e 2e3c 8c3e b417 753e
00000030: 862f cc3e 9026 093f 3b5f e33e 50ce bc3e
00000040: 9e0f 6a3e e412 84be 0237 3d3e c6f9 f63d
00000050: e312 ce3e 9174 a63e 3a41 8e3e f1ea ce3d
00000060: 0156 d73e 4fb4 863e eb88 b23e 8147 1c3e
00000070: eb36 bcb8 7ee1 07be 59dc dd3e 5d91 663e
00000080: 7e42 043e 4385 2d3e 7a4e f63e 8725 4a3e
00000090: 27df 483e 52ce ab3e a9fd 003f 82b3 da3e
000000a0: fe6b 6c3e 342e 31be a54e 293e 5e27 263e
000000b0: 1233 80bd a54b 893e 4f08 b63e 2e93 553e
000000c0: 33d7 9abc 0ef4 643e e246 433d e20d af3e
000000d0: 5c6f 2f3e 18e9 873e d089 91bd f529 853e
000000e0: 180c d9bd 8ddc 3d3d 23c5 5b3e 7309 d03e
000000f0: 1047 5a3e 5903 7d3e ffa6 6e3e 4bc6 9a3e

fc3.weight f4 [4, 64]
-0.42830935 0.011957167 -0.329431 -0.48863477 -0.7315334 -0.46515533 0.25678244 0.17904115
-0.48878798 -0.25730827 -0.4325901 -0.100315005 -0.37530813 -1.3015851 -0.39562005 -0.5517757
-0.090795524 -1.9690908 -0.33878267 -0.23123059 -0.6912953 -0.58132976 -0.61616474 -0.34593552
-0.6088477 -0.6653296 -0.5717445 -0.4234818 -0.13286053 -1.1138568 0.39679423 -0.42768222
-0.46729788 -0.21170318 0.5369208 -0.27106756 -0.40524805 -0.5233944 -0.61505115 -0.48863432
-0.34830782 -0.98849577 -0.42286915 -0.069962725 -0.36081317 -0.48250014 -0.44138482 -0.15088262
-0.026426421 -0.78172195 -0.32945722 -0.70336 -0.46902913 -0.41541025 0.11661658 -0.28411785
0.09614868 -0.27897072 -0.31355485 -0.7499083 -0.38048658 -0.20726147 -0.18355359 -0.3579879
-0.17810977 0.09140594 -0.21218908 -0.4793432 -0.6337741 -0.36096314 0.19840679 0.3148128
-0.13918492 -0.29002443 -0.25050592 -0.297666 -0.5151769 0.036403842 -0.27623653 -0.30283463
0.07909636 -1.5378594 -0.42967194 -0.019138271 -0.9416951 -0.40777427 -0.71705145 -0.29597417
-0.4852372 -0.5105164 -0.54401726 -0.08835554 -0.01045053 -1.0797276 0.200341 -0.32623404
-0.48595166 -0.37731072 0.2804686 -0.32435966 -0.3406092 -0.40982005 -0.5768822 -0.18582727
-0.4872803 -1.0081517 0.51720446 -0.24481213 0.1418583 -0.22872274 -0.4626946 -1.2599185
-0.03181178 -0.6768429 -0.25461254 -0.46679482 -0.53831375 -0.43681437 0.043732345 -0.4814273
-0.18710732 -0.18799151 -0.38716635 -1.1351267 -0.26059002 -0.09052352 -0.22266304 0.5094637
-0.33516833 0.1157576 -0.34528685 -0.40762183 -0.5829636 -0.43210617 -0.15311374 0.038800146
-0.20562592 -0.42721128 -0.3605991 -0.39112517 -0.57520413 0.14354768 0.055819325 -0.69056344
-0.074086525 -0.057977114 0.59695673 -0.2697206 -0.65581447 -0.5286922 -0.6833008 -0.45707595
-0.74820316 -0.65928185 0.029280692 -0.25080988 0.18149619 -0.52254456 0.10885372 -0.18636434
-0.44009545 -0.3583818 0.13140123 -0.3174871 -0.1917247 -0.30923465 -0.46836963 -0.687337
-0.3307884 -0.58413714 0.27030113 -0.5141056 -0.34177276 -0.27792457 -0.63094443 0.032130506
-0.7943929 -0.52352643 -0.15763897 -0.5702822 -0.37915474 -0.36900383 0.045879472 -0.44480386
-0.14621921 -0.2559669 -0.28337243 -0.6643881 -0.15899059 -0.3970251 0.35998392 -0.19617833
-0.6000269 0.23657078 -0.41286406 -0.38380307 -0.12773903 -0.5247795 -0.01932969 -0.21700898
-0.23550296 -0.40644452 -0.49729952 -0.19851689 -0.44296488 -0.7098981 -0.12629579 -0.4122715
0.35892624 -0.17196047 -0.06870027 -0.10273643 -0.5451469 -0.3856588 -0.6165173 -0.27727005
-0.74575925 -0.78577495 -0.56157804 -0.35192606 0.16892828 -0.6201977 0.2711699 -0.30583584
-0.5797205 -0.36476025 0.33550102 -0.49037424 -0.24520193 -0.6811905 -0.43791074 -0.64673305
-0.43170816 -0.96924204 0.07625456 -0.21776037 -0.015239794 -0.42663357 -0.5943572 -0.7943854
-0.4476037 -0.7726535 -0.37771294 -0.7837833 -0.36655745 -0.38775662 0.05949512 -0.3777959
-0.16110621 -0.22537896 -0.44177884 -1.1021762 -0.35251752 -0.22310619 0.2636114 -0.13389198
00000000: 5d4b dbbe fee7 433c 2eab a8be 562e fabe
00000010: c645 3bbf d728 eebe fd78 833e 9056 373e
00000020: 6b42 fabe e9bd 83be 737c ddbe f471 cdbd
00000030: 6328 c0be 579a a6bf b68e cabe 2c41 0dbf
00000040: 01f3 b9bd 2b0b fcbf ec74 adbe b6c7 6cbe
00000050: bbf8 30bf 07d2 14bf f9bc 1dbf 761e b1be
00000060: 71dd 1bbf 0a53 2abf d95d 12bf 9bd2 d8be
00000070: 970c 08be dc92 8ebf 9d28 cb3e 2af9 dabe
00000080: ab41 efbe b8c8 58be a473 093f 5ec9 8abe
00000090: ac7c cfbe 2dfd 05bf fe73 1dbf 472e fabe
000000a0: 6755 b2be 0f0e 7dbf 4e82 d8be 9e48 8fbd
000000b0: 81bc b8be 420a f7be 31fd e1be f980 1abe
000000c0: 397c d8bc ee1e 48bf 9eae a8be 670f 34bf
000000d0: 9624 f0be a7b0 d4be acd4 ee3d e577 91be
000000e0: 99e9 c43d 40d5 8ebe 438a a0be fef9 3fbf
000000f0: 23cf c2be 5a3c 54be 79f5 3bbe 314a b7be
00000100: 6862 36be 0a33 bb3d 1848 59be 796c f5be
00000110: 053f 22bf 29d0 b8be 262b 4b3e 252f a13e
00000120: 7e86 0ebe 157e 94be 5042 80be ae67 98be
00000130: a2e2 03bf 321c 153d e06e 8dbe 240d 9bbe
00000140: 46fd a13d 94d8 c4bf f6fd dbbe ddc7 9cbc
00000150: ee12 71bf cac7 d0be af90 37bf ed89 97be
00000160: 0371 f8be 34b1 02bf b744 0bbf c0f3 b4bd
00000170: b338 2bbc 8434 8abf 3126 4d3e 2608 a7be
00000180: a8ce f8be df2e c1be 9599 8f3e 7812 a6be
00000190: 5464 aebe efd3 d1be 8dae 13bf 8149 3ebe
000001a0: ce7c f9be 1d0b 81bf 8367 043f 08b0 7abe
000001b0: 4d43 113e 4b36 6abe 4ee6 ecbe 0245 a1bf
000001c0: 124d 02bd 9445 2dbf 935c 82be bbff eebe
000001d0: eece 09bf 22a6 dfbe b020 333d a47d f6be
000001e0: 1099 3fbe d980 40be ab3a c6be d54b 91bf
000001f0: 0e6c 85be 6564 b9bd c801 64be 376c 023f
00000200: 2f9b abbe 5212 ed3d 70c9 b0be cfb3 d0be
00000210: 1a3d 15bf 053d ddbe d9c9 1cbe e7ec 1e3d
00000220: 9a8f 52be 70bb dabe 72a0 b8be 8f41 c8be
00000230: 9440 13bf 2afe 123e cea2 643d c4c8 30bf
00000240: adba 97bd 6979 6dbd 28d2 183f d218 8abe
00000250: 75e3 27bf 5f58 07bf cdec 2ebf dc05 eabe
00000260: 3e8a 3fbf b2c6 28bf 10de ef3c 276a 80be
00000270: 23da 393e 7bc5 05bf b3ee de3d 4bd6 3ebe
00000280: 3154 e1be d27d b7be 0b8e 063e ab8d a2be
00000290: 7b53 44be 0154 9ebe 25ce efbe 51f5 2fbf
000002a0: 195d a9be 038a 15bf e964 8a3e 6d9c 03bf
000002b0: d7fc aebe 214c 8ebe 9385 21bf 479b 033d
000002c0: 555d 4bbf d405 06bf 1c6c 21be 04fe 11bf
000002d0: 9220 c2be 12ee bcbe 1dec 3b3d 55bd e3be
000002e0: 7dba 15be 180e 83be 3116 91be 5715 2abf
000002f0: 6ece 22be e046 cbbe d04f b83e f9e2 48be
00000300: 5d9b 19bf 9c3f 723e eb62 d3be d681 c4be
00000310: 05ce 02be f357 06bf 4c59 9ebc 9a37 5ebe
00000320: b027 71be 7f19 d0be 0b9e febe 0348 4bbe
00000330: 4bcc e2be e2bb 35bf af53 01be 4015 d3be
00000340: 2ec5 b73e 6816 30be bab2 8cbd 7a67 d2bd
00000350: bf8e 0bbf 1275 c5be 14d4 1dbf 57f6 8dbe
00000360: 14ea 3ebf 8c28 49bf 94c3 0fbf a72f b4be
00000370: 89fb 2c3e 47c5 1ebf c8d6 8a3e 8496 9cbe
00000380: 9068 14bf dbc1 babe cac6 ab3e 5512 fbbe
00000390: 3716 7bbe 8062 2ebf d635 e0be 4c90 25bf
000003a0: da08 ddbe 3f20 78bf 5a2b 9c3d 93fc 5ebe
000003b0: 54b0 79bc b76f dabe cb27 18bf d75c 4bbf
000003c0: 502c e5be 9fcc 45bf 9763 c1be 06a6 48bf
000003d0: 6bad bbbe 0988 c6be 28b1 733d 776e c1be
000003e0: 07f9 24be bec9 66be d630 e2be 1c14 8dbf
000003f0: 2d7d b4be f375 64be 13f8 863e fb1a 09be

fc3.bias f4 [4]
-0.21598364 -0.1354773 -0.49654928 -0.53856945
00000000: d12a 5dbe 90ba 0abe b53b febe b0df 09bf
